Models/NN_x_pos_N2pc/x_pos_model_Subj5.pt (torch, 33900 bytes, 5 tensors)

weight f4 [32, 196]
-0.21030901 -0.26761845 0.31156898 -0.09234843 -0.47230804 0.1868066 0.24706592 0.332808
0.38269842 0.31067926 0.34426397 -0.5327944 -0.70326716 0.021005714 0.3551953 -0.2862574
-0.47895834 -0.27255633 -0.06994857 -0.104240805 0.12841836 -0.27933037 -0.33723202 -0.1524497
-0.45791292 0.19050163 0.1278021 0.20257346 0.30531117 -0.28852347 0.1743883 0.25446782
0.036050588 0.66223246 0.19937563 -0.20838976 0.037161615 0.2807748 0.2996378 -0.41700852
-0.49745977 0.20550771 0.006221751 -0.29582974 -0.46886227 -0.61703384 -0.26289698 0.0022339814
0.30743176 0.06637427 0.14014922 0.07677159 -0.15150659 0.4246238 0.45003253 0.59276897
-0.4034555 -0.14013962 0.20113818 0.55331343 0.78186864 0.9577074 -0.19096965 -1.23405
-0.27948272 0.18793716 0.059030585 0.40959325 0.8742211 0.02271329 -0.3984715 -0.05610415
-0.558614 -0.16983055 -0.18508226 -0.24056834 0.6540618 0.5965477 -0.13786191 -0.07614331
-0.1916364 -0.057594612 0.32041478 -0.5354474 0.1933837 -0.26704252 0.1427381 0.42067835
0.08105958 0.33914417 -0.119139746 -0.54902935 0.31957436 0.5207727 0.1024042 0.22185828
0.4583916 0.6679183 -0.2899378 -0.06446842 -0.5770003 -0.25992906 -0.2687236 -0.3424789
0.2632798 0.22376615 0.23648821 -0.24317929 -0.7142451 -0.10336991 -0.087567925 -0.61180097
-0.42796668 -0.33433586 0.37251738 0.67390066 0.6775697 0.7953398 0.29244214 0.22316791
0.514014 0.03459624 -0.040688504 0.018039962 0.07445698 -0.108186126 0.0008873413 0.09733384
-0.31243035 -0.122531965 -0.13837345 -0.5499437 -0.07555815 -0.30832842 -0.9712688 -0.42155454
-0.3405719 -0.21748222 0.44916466 0.19658163 -0.26267505 -0.39611086 0.00061944115 -0.102380596
-0.226649 -0.08017467 -0.3352277 -0.090926915 0.73047596 0.5840814 0.1256599 -0.4954463
-0.8574067 -0.31297073 0.19698074 0.67145276 0.3808037 0.54158455 0.44310534 -0.18425333
0.5043926 0.360588 -0.3020641 -0.3696783 -0.31541303 0.041604914 0.20063382 -0.341022
-0.20270604 -0.13964035 0.12302227 0.20166391 -0.23701249 0.058144502 -0.52913415 -1.0773973
-0.08252344 0.66771466 0.25911856 -0.558779 -0.7434742 -0.69760036 0.15004885 -0.15907902
-0.41241708 -0.100842364 0.20751475 0.07041192 0.52429914 0.65377456 0.88440907 0.51708484
-0.35695368 -0.055615723 -0.0013099385 0.26693854 0.23197603 0.36137477 0.60676736 0.16161405
-0.040650144 -0.11580756 0.19798687 0.7729822 0.19364645 0.26579627 1.0292904 -0.19336331
-1.0872264 0.16892816 0.41781148 -0.47491395 -0.0445555 -0.4343175 -0.1608787 -0.14093788
-0.19499311 -0.12599282 -0.8138463 -1.1708553 -0.024049588 1.0247219 0.36916405 0.6126225
0.4466528 0.6560228 0.44355312 0.5525151 -0.11358921 -0.50932664 -0.1997862 0.13934582
-0.41567096 -0.7213492 0.26622352 0.08529724 -0.9876337 0.3982964 0.13315022 -0.07650476
0.55394393 -0.22021389 -0.2494474 0.53080684 0.51353 0.28450102 0.033045545 -0.490036
-0.2743283 0.030512372 -0.18094416 0.4066081 -0.040858235 -0.65715384 -0.28981563 0.5085303
00000000: 3f5b 57be 4905 89be f885 9f3e 2c21 bdbd
00000010: 5cd2 f1be 3b4a 3f3e d9fe 7c3e cf65 aa3e
00000020: 0cf1 c33e 5a11 9f3e 5e43 b03e 3765 08bf
00000030: 5109 34bf 2d14 ac3c 29dc b53e 5490 92be
00000040: 073a f5be 818c 8bbe 3241 8fbd 347c d5bd
00000050: 1a80 033e 6404 8fbe ada9 acbe c61b 1cbe
00000060: 9073 eabe dc12 433e 8ede 023e 6b6f 4f3e
00000070: bf51 9c3e 59b9 93be d992 323e 9b49 823e
00000080: c8a9 133d 1188 293f 2029 4c3e 2064 55be
00000090: c736 183d b7c1 8f3e 206a 993e 2482 d5be
000000a0: 0cb3 febe 9d70 523e d5df cb3b ff76 97be
000000b0: b70e f0be eef5 1dbf 6f9a 86be fd67 123b
000000c0: b267 9d3e 3cef 873d 4783 0f3e 6c3a 9d3d
000000d0: 8b24 1bbe 4a68 d93e aa6a e63e b5bf 173f
000000e0: b891 cebe c380 0fbe 2bf7 4d3e f3a5 0d3f
000000f0: 8b28 483f 502c 753f 8c8d 43be 5af5 9dbf
00000100: 5c18 8fbe 9972 403e 0eca 713d 35b6 d13e
00000110: f4cc 5f3f 3911 ba3c 7504 ccbe 77cd 65bd
00000120: 5401 0fbf 0fe8 2dbe 3486 3dbe 8c57 76be
00000130: 9870 273f 5ab7 183f ac2b 0dbe 06f1 9bbd
00000140: 553c 44be 54e8 6bbd 680d a43e 1513 09bf
00000150: 6006 463e ccb9 88be f029 123e 2763 d73e
00000160: 9102 a63d 4ea4 ad3e 8aff f3bd 308d 0cbf
00000170: 409f a33e 5c51 053f 4bb9 d13d d12e 633e
00000180: 4eb2 ea3e b2fc 2a3f ba72 94be 0508 84bd
00000190: 4bb6 13bf 6c15 85be 2496 89be 6559 afbe
000001a0: 9ccc 863e f422 653e f729 723e fe03 79be
000001b0: c4d8 36bf 9ab3 d3bd d056 b3bd fd9e 1cbf
000001c0: 731e dbbe 122e abbe 99ba be3e c184 2c3f
000001d0: 3575 2d3f 649b 4b3f faba 953e 2186 643e
000001e0: 6c96 033f c9b4 0d3d fda8 26bd 8bc8 933c
000001f0: e77c 983d b090 ddbd 779c 683a f756 c73d
00000200: dff6 9fbe 0af2 fabd c5b1 0dbe 1cc9 0cbf
00000210: 3bbe 9abd 39dd 9dbe 12a5 78bf ffd5 d7be
00000220: 715f aebe a9b3 5ebe e9f8 e53e b24c 493e
00000230: 587d 86be 0bcf cabe fe61 223a ebac d1bd
00000240: ad16 68be 9e32 a4bd f7a2 abbe e437 babd
00000250: 7900 3b3f 5c86 153f fdac 003e 23ab fdbe
00000260: 017f 5bbf b33d a0be 52b5 493e 54e4 2b3f
00000270: b4f8 c23e 49a5 0a3f b4de e23e e8ac 3cbe
00000280: e01f 013f fe9e b83e 25a8 9abe 7946 bdbe
00000290: d17d a1be ea69 2a3d f472 4d3e 709a aebe
000002a0: 2c92 4fbe e1fd 0ebe 1af3 fb3d fc80 4e3e
000002b0: 67b3 72be ee28 6e3d 5675 07bf 28e8 89bf
000002c0: 0d02 a9bd 59ef 2a3f 30ab 843e 240c 0fbf
000002d0: 5354 3ebf f095 32bf 68a6 193e 9ce5 22be
000002e0: 5528 d3be 7186 cebd bf7e 543e 2034 903d
000002f0: 7838 063f c55d 273f a268 623f ac5f 043f
00000300: a2c2 b6be 50cd 63bd 3eb2 abba 2bac 883e
00000310: 208b 6d3e 1d06 b93e 1b55 1b3f 277e 253e
00000320: c480 26bd 842c edbd 12bd 4a3e 29e2 453f
00000330: 414b 463e 7316 883e cabf 833f 0801 46be
00000340: 3c2a 8bbf 81fb 2c3e 63eb d53e ec27 f3be
00000350: d47f 36bd dd5e debe 63bd 24be 0552 10be
00000360: 46ac 47be 4304 01be 3b58 50bf 96de 95bf
00000370: a403 c5bc 162a 833f 1203 bd3e d4d4 1c3f
00000380: adaf e43e 1cf1 273f 6519 e33e a171 0d3f
00000390: 76a1 e8bd 3b63 02bf c194 4cbe acb0 0e3e
000003a0: d3d2 d4be 57aa 38bf 734e 883e 52b0 ae3d
000003b0: 90d5 7cbf 81ed cb3e 8858 083e 87ae 9cbd
000003c0: 45cf 0d3f c07f 61be 246f 7fbe f5e2 073f
000003d0: b476 033f 1eaa 913e c45a 073d 00e6 fabe
000003e0: c274 8cbe 15f5 f93c 6d49 39be f02e d03e
000003f0: f75a 27bd 3c3b 28bf b762 94be 0b2f 023f

bias f4 [32]
-0.9372511 -0.9889693 -0.6986294 -0.4962835 -0.72707933 -0.60061085 -1.046304 -0.37606564
-1.6468679 -0.90935504 -0.6372347 -0.37341624 -0.3951141 -0.73417664 0.021387001 -0.77411515
-1.175242 -0.5655274 -1.2586586 -1.1332213 -1.0068917 -1.237122 -0.3022902 -0.7014772
-0.46987993 -0.8721837 -0.7654837 -0.5222784 -0.47726133 -0.7404952 -0.58106714 -1.232756
00000000: b0ef 6fbf 182d 7dbf 60d9 32bf df18 febe
00000010: df21 3abf a2c1 19bf 4aed 85bf ad8b c0be
00000020: 91cc d2bf 7ecb 68bf d021 23bf 6a30 bfbe
00000030: 654c cabe 00f3 3bbf cb33 af3c 692c 46bf
00000040: 546e 96bf 67c6 10bf ba1b a1bf 650d 91bf
00000050: d4e1 80bf 045a 9ebf c8c5 9abe 0394 33bf
00000060: 1a94 f0be 6e47 5fbf bdf6 43bf 0ab4 05bf
00000070: 995b f4be 1891 3dbf d1c0 14bf f3ca 9dbf

weight f4 [32, 32]
0.12758976 1.2795992 -0.08973392 0.6316458 -0.6280412 0.5954539 -1.3057693 0.5275312
0.5573051 1.2573915 0.29140943 0.6316646 -0.4277663 -1.0289282 0.9164819 0.33240366
0.27473184 0.2558143 0.25005525 0.4460596 -1.1400826 0.4698788 0.7703609 -0.33899552
-0.06772168 -0.8893049 0.21587701 -0.642266 -0.049374 0.9249666 -0.5360514 0.77396977
0.601882 1.6382362 0.5278343 0.8701787 -0.27493116 0.5833479 -0.6545395 0.27342525
0.5786497 0.45308417 0.2988959 0.38061953 -0.030196795 -0.521429 0.5316479 0.015776739
0.07547436 0.8259532 0.37768662 1.1528589 -0.49107426 0.57401186 0.7548457 -0.24058378
0.31423867 -0.4022607 -0.2911341 -0.54163855 0.24369833 0.5864292 -0.40679026 0.28669497
0.56584764 1.314704 0.4511869 0.40953958 0.4173731 -0.11201262 -0.6686051 0.24736331
0.57160234 0.17073481 -0.3422157 1.1740092 0.55101603 -0.6736872 0.8877944 0.082039066
0.46124974 0.5726646 0.7978933 1.002041 -0.39310753 0.84107256 0.6905802 0.62192744
0.8483308 -0.31431314 0.21079852 -0.49647677 0.0031118558 0.08160852 -0.34417227 0.7849379
0.5474283 1.3033446 0.8867052 0.52267563 0.4050381 0.102401346 -0.56404144 -0.020984396
0.6355784 0.10240332 -0.14250016 0.7054951 0.67569643 -0.7338598 0.7431421 0.025105665
0.31498978 0.6563513 0.7007823 0.99055684 -0.70684415 0.8509556 0.7936467 0.35321066
0.9901071 -0.20639098 0.16552615 -0.5439603 0.20546511 0.040471323 -0.5156751 0.7256499
0.097278334 1.2270983 0.44717318 0.8584305 0.5957813 0.0036142217 -0.9297907 -0.058796365
1.0001189 0.86218 -0.23411699 0.8250303 0.2444355 -0.693854 1.0114776 0.050348457
0.42668813 0.5419756 0.47944003 0.8195466 -0.3752708 0.75720364 0.8343598 0.6802562
0.8854794 -0.49262393 0.83749807 -0.6606947 0.33825535 -0.12824762 -0.55375975 0.38365823
0.5464834 1.5170183 0.6011399 0.51382387 0.033879854 0.207627 -0.6126477 0.48497695
0.6429664 0.4232665 0.033341017 0.7277918 0.42198074 -0.61916363 0.6444682 0.046427764
0.38284546 0.84864163 0.9254478 0.7146841 -0.58719563 0.96539414 0.5343592 0.2922087
0.62875843 -0.051013738 0.2759609 -0.7994186 -0.028627874 0.41356996 -0.5071263 0.9046653
0.22063674 0.6797928 0.24556126 0.9933112 0.14077891 0.61779666 -1.0667506 -0.11937706
0.97408354 1.0229298 -0.24602838 1.3342069 0.07162988 -0.5289151 0.6164139 0.7155053
0.7133291 0.24103849 0.9237681 0.43404695 -0.5616072 1.4141476 0.46777648 0.5648583
0.090253405 -0.16424419 1.0421641 -0.4315041 -0.037364785 0.12449597 -0.68981874 0.30663154
0.58094215 1.2876288 0.8027932 0.5107084 0.56636786 -0.02733904 -0.7035239 0.09755596
0.89275295 0.32729846 -0.23087077 1.3045523 0.6608729 -0.6129739 0.55264825 0.03500857
0.18967104 0.75871456 0.5529626 0.97993976 -0.7054869 0.63285553 0.5558972 0.80472046
1.0156299 -0.5342079 0.023209454 -0.45122975 0.11822273 0.027076652 -0.31553683 0.4679552
00000000: e4a6 023e e8c9 a33f 6bc6 b7bd 8ab3 213f
00000010: 4fc7 20bf ab6f 183f 7323 a7bf 490c 073f
00000020: 8cab 0e3f 34f2 a03f 9e33 953e c5b4 213f
00000030: 2f04 dbbe ebb3 83bf 8f9e 6a3f d030 aa3e
00000040: a7a9 8c3e 18fa 823e 3e07 803e ed61 e43e
00000050: 3aee 91bf f493 f03e 5f36 453f d290 adbe
00000060: aab1 8abd 7ca9 63bf dd0e 5d3e 8b6b 24bf
00000070: 643c 4abd 9cca 6c3f aa3a 09bf e222 463f
00000080: f014 1a3f b9b1 d13f 2620 073f 08c4 5e3f
00000090: c7c3 8cbe 4a56 153f e78f 27bf 65fe 8b3e
000000a0: 6322 143f a6fa e73e e208 993e 90e0 c23e
000000b0: 455f f7bc 5f7c 05bf 141a 083f 383e 813c
000000c0: 4d92 9a3d ab71 533f 2460 c13e e190 933f
000000d0: 166e fbbe 71f2 123f 913d 413f 985b 76be
000000e0: e4e3 a03e 1df5 cdbe 870f 95be d3a8 0abf
000000f0: 0e8c 793e 3920 163f d046 d0be afc9 923e
00000100: 64db 103f 3848 a83f f801 e73e 2caf d13e
00000110: edb1 d53e df66 e5bd b429 2bbf cf4c 7d3e
00000120: 8854 123f 1bd5 2e3e e536 afbe ef45 963f
00000130: 630f 0d3f c476 2cbf 7e46 633f 1904 a83d
00000140: ed28 ec3e 269a 123f bc42 4c3f e142 803f
00000150: 6445 c9be 8850 573f ddc9 303f a336 1f3f
00000160: 352c 593f a7ed a0be 91db 573e 3432 febe
00000170: 47f0 4b3b 5e22 a73d 5937 b0be b1f1 483f
00000180: 4324 0c3f ffd3 a63f 1dff 623f 12ce 053f
00000190: 2761 cf3e ccb7 d13d 0565 10bf 78e7 abbc
000001a0: 44b5 223f d5b8 d13d 90eb 11be 549b 343f
000001b0: 71fa 2c3f 3cde 3bbf 903e 3e3f 65aa cd3c
000001c0: 5746 a13e a406 283f 7866 333f 2295 7d3f
000001d0: bdf3 34bf 3ad8 593f 6e2c 4b3f 07d8 b43e
000001e0: a977 7d3f 2858 53be b07f 293e fb40 0bbf
000001f0: 7265 523e 42c5 253d 4903 04bf 31c4 393f
00000200: dd39 c73d 8f11 9d3f e2f3 e43e 1ac2 5b3f
00000210: 2085 183f 94dc 6c3b c306 6ebf 75d4 70bd
00000220: e503 803f d4b7 5c3f 5dbc 6fbe 3035 533f
00000230: 4d4d 7a3e 6aa0 31bf 1978 813f 2f3a 4e3d
00000240: de76 da3e eabe 0a3f 2a79 f53e cecd 513f
00000250: 7f23 c0be 19d8 413f 9b98 553f 4525 2e3f
00000260: c7ae 623f 3439 fcbe 4666 563f 4a23 29bf
00000270: ce2f ad3e 5853 03be 33c3 0dbf da6e c43e
00000280: 56e6 0b3f a82d c23f 4ee4 193f f689 033f
00000290: 9ac5 0a3d 2c9c 543e 7bd6 1cbf e64e f83e
000002a0: 7299 243f 63b6 d83e 9790 083d 9050 3a3f
000002b0: dc0d d83e 8281 1ebf defb 243f 0a2b 3e3d
000002c0: 5204 c43e 9440 593f 26ea 6c3f 8af5 363f
000002d0: 7452 16bf 1224 773f c4cb 083f 619c 953e
000002e0: 50f6 203f c8f3 50bd bf4a 8d3e b3a6 4cbf
000002f0: 0185 eabc 71bf d33e 07d3 01bf 2598 673f
00000300: 99ee 613e e706 2e3f 6974 7b3e a549 7e3f
00000310: 5928 103e ec27 1e3f 498b 88bf f67b f4bd
00000320: 8a5d 793f 5def 823f ddee 7bbe 4bc7 aa3f
00000330: b0b2 923d fb66 07bf 4dcd 1d3f 5b2b 373f
00000340: bc9c 363f cbd2 763e 117c 6c3f 673b de3e
00000350: 7dc5 0fbf ca02 b53f 6680 ef3e 8e9a 103f
00000360: c7d6 b83d a12f 28be a265 853f 1bee dcbe
00000370: d10b 19bd bef7 fe3d f697 30bf cffe 9c3e
00000380: a0b8 143f 05d1 a43f db83 4d3f c9bd 023f
00000390: 7cfd 103f 1ff6 dfbc 241a 34bf 6bcb c73d
000003a0: 758b 643f aa93 a73e 6369 6cbe 92fb a63f
000003b0: f72e 293f dceb 1cbf 5b7a 0d3f 2565 0f3d
000003c0: 2039 423e 1e3b 423f f58e 0d3f 55dd 7a3f
000003d0: ca9a 34bf d202 223f 474f 0e3f 2902 4e3f
000003e0: 2900 823f d9c1 08bf c121 be3c 9607 e7be
000003f0: c21e f23d dbcf dd3c 0b8e a1be d397 ef3e

bias f4 [32]
-4.645073 -4.5531173 -3.6139736 -3.9206614 -3.8291976 -4.347413 -4.606653 -3.5374424
-4.0212083 -4.142681 -3.8991506 -3.895553 -4.7643895 -4.696517 -2.162501 -3.252915
-3.845468 -3.8886375 -3.8295846 -4.220389 -3.2779338 -3.4233396 -3.8352356 -4.5048056
-3.89243 -4.2690144 -3.7255144 -3.463751 -4.577241 -4.2485867 -4.236928 -3.9286432
00000000: 70a4 94c0 23b3 91c0 584b 67c0 1eec 7ac0
00000010: 9311 75c0 021e 8bc0 b469 93c0 7565 62c0
00000020: bdad 80c0 d890 84c0 af8b 79c0 be50 79c0
00000030: e175 98c0 de49 96c0 6b66 0ac0 c22f 50c0
00000040: 261c 76c0 70df 78c0 ea17 75c0 6d0d 87c0
00000050: abc9 51c0 ff17 5bc0 8074 75c0 5e27 90c0
00000060: 931d 79c0 c49b 88c0 d46e 6ec0 19ae 5dc0
00000070: c278 92c0 6cf4 87c0 ea94 87c0 e46e 7bc0

weight f4 [1, 32]
19.453033 19.347622 19.316555 19.7088 19.81784 19.990372 19.754492 19.48689
19.713514 19.476582 19.704155 19.888916 19.791683 19.553164 19.268179 19.583267
19.824612 19.498598 19.60845 19.946917 19.617119 19.3079 19.411777 19.140284
19.550625 19.370995 19.121262 18.959396 19.070492 19.959747 19.713877 19.247362
00000000: d09f 9b41 eec7 9a41 4e88 9a41 9fab 9d41
00000010: f08a 9e41 48ec 9f41 3309 9e41 27e5 9b41
00000020: 47b5 9d41 0ad0 9b41 1ca2 9d41 801c 9f41
00000030: 5e55 9e41 e16c 9c41 3b25 9a41 88aa 9c41
00000040: ce98 9e41 21fd 9b41 1bde 9c41 4993 9f41
00000050: dcef 9c41 9476 9a41 524b 9b41 4d1f 9941
00000060: ae67 9c41 ccf7 9a41 58f8 9841 d8ac 9741
00000070: 5e90 9841 90ad 9f41 05b6 9d41 99fa 9941
