Models/NN_x_pos_N2pc/x_pos_model_Subj3.pt (torch, 33900 bytes, 5 tensors)

weight f4 [32, 196]
00000000: ac19 743f 9754 6b3e 740c 00bf 92d6 38bd
00000010: f6a2 4c3f 95ef 1d3f 2820 023f 08de 8d3f
00000020: 6023 9c3f 56f3 633f 04d8 4b3f 06e6 07be
00000030: ee44 eebe b7a9 bc3e 1c79 513c 3e1c 123f
00000040: a609 5b3e 5693 58be 86bc 25be ff36 233e
00000050: e3c4 6dbf c02e 75bf 5fd0 ddbe 30dd 92be
00000060: 8066 1ebf d88c 9ebf dbe1 1bbf 43f0 293e
00000070: 9e94 9c3e 8dad f6be 58bf a33c 1b6e 18bf
00000080: 2605 dabe 34fd 36bf 9b3e 0abe 27de 0c3f
00000090: e36a 73be e55f 5ebd 700f 5ebe 99b3 7bbf
000000a0: 1102 cdbd 97c8 4a3e a4d4 f23d 851e 19bd
000000b0: 9172 f5bd 1857 fbbd d1eb 4fbe 7669 133d
000000c0: 811f c13d 51fa edbe ed42 dabe 2eaa 30bd
000000d0: 083e b4be 9cba c8b9 e387 583f 655e 8b3f
000000e0: e200 1cbe f166 18bf ea18 16bf fb57 05bf
000000f0: c94e 04bf 4275 5ebf 53af 2ebe 42bf 543d
00000100: 7e16 eabe d7ef 70be a4c4 14be 80f2 eebe
00000110: 8b50 123d 6d60 4cbe 68ea 223f 2c5e 923f
00000120: bad2 803f b7d2 3f3f 5c45 433f 9fdb 113f
00000130: 9c92 d23e 6bdb c63e 552a e4bd 24c7 4dbe
00000140: 5534 d5bd c3db 663e f8b9 643f 680a 4b3f
00000150: 746d 3c3e 6bf9 95be e532 98be 07cd f0be
00000160: 01d1 67bd 5af4 7cbe f29b b0bd ab4d 613d
00000170: 27de 84be a47d ce3c 504e edbe f69e 80bf
00000180: 195e d4bd a3df 44be 8aaf d13c 3c36 fd3e
00000190: 953d 123f 993e 083f 812a 913e e2c5 573e
000001a0: b109 863d de97 b6be 20fd 27bf 9d28 19bf
000001b0: f069 10bf 1390 95be e829 eb3e 700e 203f
000001c0: 3e2b 11be acf1 eabe 2a3b 8cbe b91f 80be
000001d0: 5f7d 03bd 4303 30be 57cf a83d b0f4 c53e
000001e0: 241d 963d 41cd 93bd 9a85 3a3e 23d9 67bd
000001f0: 4539 07be 517d 963d 59eb 1cbf af55 4e3d
00000200: e212 053e b3d9 93be 4266 0dbe 33b1 02bd
00000210: b21e e1be 4a16 79be b6f4 9cbe 0713 0abf
00000220: 2faf 84be 886a 1fbc e458 da3b d6c4 63be
00000230: b9d5 c0bd 63dc 51bd 6be0 fa3c 81a6 0e3e
00000240: d5c8 583e 0a76 9ebd ad63 083d df34 e13e
00000250: 9509 093f cfae 653e efc8 b8bd fc19 2ebf
00000260: d38c 29bf 7491 3ebf 2022 dd3c 41f2 ea3e
00000270: fbe4 083f f60a e73e ecce 373f 129e 1f3f
00000280: b30e 743d f398 b6bd 44d7 94be d1f7 32bf
00000290: cfc7 a8be 97da 47be e590 58bc 0661 003f
000002a0: 51be 053f cdb3 1b3f 577a 033f 2028 1d3d
000002b0: a616 0c3f 5924 aebd 6aae cfbd 985a 93bd
000002c0: 1bad 6bbf 6aea 013e 9e17 ca3d 4b7e 40bf
000002d0: 5040 263f 3cdd 043f 1ee2 8d3e c796 4d3e
000002e0: a947 d63c 66dc 753e b301 d73e 3c50 913d
000002f0: 237e 7f3e 4303 b8be 040c 75bf 990e 4d3c
00000300: 014a 42bd 8f4b 9bbe b999 063f 795b 443f
00000310: 73fc 183f 22a0 8f3e 4a80 033f 6064 cd3e
00000320: 6e1b e23e 3ce7 1e3f b295 2c3f 762e 1a3f
00000330: bb9a e53e fb9d 353f be3e 923f 7c03 0dbd
00000340: 1419 81bf e862 9cbd 31b4 123f d15e ee3e
00000350: 0a24 fc3d 7931 4fbf f25a 2fbf 67f8 a83b
00000360: 74f5 72be 2a83 9dbe 0ea3 e6be 93e5 fcbd
00000370: 7f90 083e 4803 1fbf bce2 d6be d860 4c3f
00000380: b6e9 0c3e 8cfe 04bf 2a62 1b3f 471a 15be
00000390: 680e 2dbf b616 1fbf 2d25 debe ce37 0abf
000003a0: 6488 3fbf ab67 4bbd ef27 493e f5f9 09bf
000003b0: 6c86 73bf 687c 9fbe 1b3b f53c d68e 0bbf
000003c0: 2da1 dabe 1fad 49bf 5195 5abf bc24 9cbd
000003d0: 395c b33e 5a3c 92be f79e 13bf bfd5 25be
000003e0: 5f1b 91bd 91f0 f43d eb17 a63e 0908 a93e
000003f0: e563 08bf 5492 2ebf 0b8d bdbe 768e e4be
0.9535167 0.22981487 -0.50019 -0.045126505 0.7993616 0.616937 0.50830317 1.1083384
1.2198296 0.89043176 0.7962649 -0.1327134 -0.46536964 0.36848232 0.012785222 0.57074344
0.213904 -0.21149954 -0.16185197 0.15938948 -0.9287855 -0.9577446 -0.43323037 -0.28684378
-0.6187515 -1.2386732 -0.60891503 0.16595559 0.30582136 -0.48179284 0.0199887 -0.5954301
-0.42582053 -0.7148011 -0.13500445 0.5502648 -0.23771243 -0.05429067 -0.21685576 -0.9832092
-0.1001016 0.19803081 0.11856964 -0.03738262 -0.119847424 -0.12272471 -0.203048 0.035989247
0.09429837 -0.4648004 -0.42629185 -0.043131046 -0.35203576 -0.00038286007 0.84582347 1.0888182
-0.15234712 -0.59532076 -0.58631766 -0.5208737 -0.51682717 -0.8689767 -0.17059068 0.05194021
-0.45720285 -0.23528992 -0.14528137 -0.46669388 0.035721343 -0.19958659 0.63638926 1.1434989
1.0064309 0.749309 0.7627771 0.5697574 0.4112748 0.38839278 -0.11140887 -0.20095497
-0.10410372 0.2254477 0.89346266 0.79312754 0.18401128 -0.29291853 -0.2972633 -0.47031423
-0.056595806 -0.24702588 -0.08623494 0.05500571 -0.2595074 0.025206394 -0.4634881 -1.0048511
-0.1036951 -0.19225936 0.025596399 0.4945544 0.57125217 0.53220516 0.2835274 0.2107158
0.06544817 -0.3566274 -0.65620613 -0.59827596 -0.5641165 -0.29211482 0.4593041 0.6252203
-0.14176652 -0.45887506 -0.2738889 -0.25024202 -0.032101985 -0.17188744 0.08242672 0.38663244
0.07329777 -0.072168835 0.18215027 -0.056603562 -0.1320544 0.07348121 -0.6129661 0.050374683
0.12995484 -0.2887703 -0.1380854 -0.03190727 -0.4396873 -0.24324909 -0.3065545 -0.53935283
-0.25914904 -0.009729989 0.0066634286 -0.22243056 -0.09415764 -0.051235568 0.030624589 0.13930704
0.21170361 -0.07737358 0.033298183 0.4398565 0.53530246 0.22429965 -0.090227 -0.680084
-0.66230506 -0.74440694 0.026993811 0.4588795 0.53474396 0.4512555 0.7180011 0.6235057
0.05958433 -0.089158915 -0.29070485 -0.6990939 -0.32964942 -0.19516979 -0.013218139 0.50148046
0.52243525 0.6082123 0.5135855 0.038368344 0.5472206 -0.085030265 -0.10140689 -0.07195014
-0.92061013 0.12687078 0.09867786 -0.7519271 0.64941883 0.51900077 0.27711576 0.20077048
0.026157217 0.24009857 0.41993484 0.070953816 0.24950461 -0.35939988 -0.9572146 0.012515687
-0.047433857 -0.30331084 0.5257831 0.76702076 0.59760207 0.2805186 0.5136763 0.40115643
0.44161552 0.62071586 0.67415917 0.60227144 0.44844612 0.70944184 1.1425397 -0.03442715
-1.0085778 -0.07636052 0.573062 0.46556714 0.123115614 -0.80934864 -0.68498147 0.005156565
-0.23726445 -0.30764133 -0.45046276 -0.12348475 0.13336371 -0.6211438 -0.4196986 0.7983527
0.13761029 -0.5195091 0.6069666 -0.14560805 -0.6760011 -0.6214403 -0.43387738 -0.539914
-0.7481749 -0.049659412 0.1964414 -0.5389703 -0.95126987 -0.31149602 0.02993541 -0.54514825
-0.42701092 -0.78779787 -0.8538409 -0.07624194 0.35031298 -0.2856167 -0.57664436 -0.16194819
-0.07085299 0.11959947 0.32440123 0.33013943 -0.53277427 -0.6819203 -0.3702167 -0.4463994

bias f4 [32]
00000000: 05d8 4fbf e291 5cbf 855d 67bf 7959 86bf
00000010: 1ecc 4dbf fa7c 57bf 27e3 68bf 899b 0fc0
00000020: a28e 94bf 5b3c 88bf 41a5 8bbf 9c1d 89bf
00000030: d1a4 a5bf c427 81bf c10d b8bf adb3 86bf
00000040: e59c 60bf 277f 5fbf 94aa b9bf 2d35 d0bf
00000050: 5218 7bbf 4b00 8dbf 62eb 3abf a8df a4bf
00000060: cfd6 84bf 1ebf 95bf ee9e edbf 7e7d c0bf
00000070: 4d71 9fbf 71d2 6cbf 509f 6dbf a145 34bf
-0.81188995 -0.861601 -0.90377074 -1.0496055 -0.80389583 -0.84175074 -0.90971607 -2.243868
-1.1606028 -1.0643419 -1.0909806 -1.0712161 -1.2940923 -1.009026 -1.4379197 -1.0523583
-0.877394 -0.87303394 -1.4505181 -1.6266228 -0.98083985 -1.1015714 -0.73015416 -1.2880754
-1.0378054 -1.1698949 -1.8564126 -1.5038297 -1.2456452 -0.9250861 -0.92821217 -0.70418745

weight f4 [32, 32]
00000000: dc32 3d3f 75c4 123f d126 e93e f6ee 133f
00000010: b397 c43e 8e8e c83e ca24 91bd 8f5c dc3f
00000020: 7c0a a93e 0c60 393f beae 4c3f 41f3 873f
00000030: 8285 9d3e 27e6 96bd 5ab9 223f 9adf 1c3f
00000040: 63d1 833f f3f4 243d fe79 2a3f dbbf 0e3f
00000050: 3f29 de3d a4ec 113e 04f3 483e ed8c 223f
00000060: 3348 3a3f 8bbb 303e 3a05 7b3f 39eb 013f
00000070: 8912 ef3e 88d4 af3e 68e4 85bf eb32 2a3e
00000080: eb19 9a3f 36f3 5d3f 6386 713f c5ea 3b3f
00000090: 6b56 3d3f f834 ad3e 9830 de3c 7a37 f83f
000000a0: 55a4 aa3e 070b 043f 037c 533f 9134 783f
000000b0: ad3a cf3e 12f5 f13e e37c 1b3f 93f7 8b3e
000000c0: 23e5 453f 4914 abbd 46ec 273f 9695 f43e
000000d0: 060c 813e e09f d93e a1ae 3c3e e0c3 2d3f
000000e0: 9b97 893f 9506 c63e 228f 213f dea5 f33e
000000f0: a6a0 173f a6a5 013f 3e0a 2fbf c3d0 4a3e
00000100: d2cd 673f f616 1e3f 91e5 ac3d a82a cd3e
00000110: 5962 963e c482 81bd 6a13 1bbc 6299 533f
00000120: 890c 5b3e 9ec0 063f 9e95 ca3e 53aa 9d3f
00000130: ff71 043f a67c 0c3e 8c07 223f 8982 bb3e
00000140: 5dc1 9b3f f28d 683e 3b7b 493f e9d8 503f
00000150: 72f9 6c3e edb6 d83e 0299 393e 71c2 ad3e
00000160: 7050 4e3f 18ff 333e f090 243f 5627 2c3f
00000170: 60ce ae3e 59a3 413e cbce e8bf 27c2 563e
00000180: 9a04 763f baa9 083f cc14 2a3f c16d 123f
00000190: d8d0 0b3f fb2c 703e 0c1e 403e f16e 853f
000001a0: 4a75 163e 00dc bc3e ba6f 493f ab78 763f
000001b0: 0386 1b3f 9852 ae3e 417d 183f b5a1 543e
000001c0: ede9 803f 9eac 12bd 9955 d13e 6a13 0c3f
000001d0: bfab 713d 011f 043f 3c71 263d 2dba 003f
000001e0: d678 853f 1b95 d73e 7131 443f 5069 343f
000001f0: fc36 343f e814 a03d 1e3d dfbf f9ac 483e
00000200: 489e 2b3f 14c7 423f 1759 ae3e 37ac 3c3f
00000210: 660f 2e3f 6528 ea3d f774 dd3d 55b7 cd3e
00000220: 424f 713e baef 4e3f 355e 1a3f ec4f 993f
00000230: 7474 b43e 7f6d 1bbe 5b0b 293f 5bf7 043f
00000240: 86eb 563f 1944 78bd fdef c93e 8600 4a3f
00000250: 53ef ea3e c00f a03e fa60 d53e cdc2 b43e
00000260: 626e 2e3f ff44 bd3d 76e6 803f bfa5 1f3f
00000270: f974 413f 36fd eabd 1d85 d3bf c0ea c63d
00000280: cd62 773f d602 3d3f 4cfa df3e 5a8a 083f
00000290: 5dc4 393e d48e d53d 479f e83d 850f 9e3f
000002a0: 0f07 b73e ddec da3e 66dc 423f fb5a 723f
000002b0: 8a35 f63e 7db4 513e f08b f13e e24b 483e
000002c0: e220 a03f 9bd2 b93e cd3a 503f 8b27 403e
000002d0: 43be 1a3e 7217 1b3f d7b3 913d c994 db3e
000002e0: ffdd 703f 21ca 093f 6ad6 223f 5fe0 073f
000002f0: c380 a03e e025 933e 1a15 f2bf b387 303e
00000300: 4474 853f 0d35 f23e c539 0d3f 52ae 353f
00000310: f5a9 d33e 7ba8 bd3e b581 893d 54ea 363f
00000320: a463 50bd 9e5f 3b3f 9f2a 253f 53c3 a23f
00000330: 825d db3e ef90 283e 7c35 1c3f 0972 253f
00000340: b5cd 483f fa44 08be ea8e 313f 54d6 133f
00000350: 9e65 203e ef29 203f 62f7 a13e aee6 243f
00000360: 67ba 343f 67ae 053f 3b53 803f 02bd 273f
00000370: 3d56 093f c56b 883e 7f63 8abf be06 803e
00000380: 4030 923f 9b1c 2a3f 7c87 b73e 6d69 f93e
00000390: 7f12 ea3e 453a 4b3e 4827 8cbd 88b9 af3f
000003a0: 760c 1a3f c3e1 133f 66f9 243f 3bbb 913f
000003b0: bb4f 2e3f 7e6a c43e 216f 223f 6c4b 4c3e
000003c0: c146 843f b9b9 9d3d 6723 ff3e ec7f 253f
000003d0: aa1b 8fbd f6e3 5a3e eb0a 583d 2a38 233f
000003e0: 9e3b 743f 453e 033e ffb4 323f f94b 523f
000003f0: 3c66 093f 7db4 173e 6978 d6bf f957 c3bd
0.7390573 0.5733102 0.45537427 0.577865 0.38396987 0.3917126 -0.07087095 1.7215747
0.3301581 0.7241218 0.79954135 1.062111 0.3076592 -0.07368117 0.63564074 0.6127869
1.0298275 0.040272664 0.66592395 0.557615 0.10847711 0.14250427 0.19623953 0.63496286
0.7276642 0.17259042 0.9805485 0.50749546 0.4669383 0.34341836 -1.0460329 0.16620986
1.203916 0.86699235 0.9434568 0.73405105 0.7395999 0.33829474 0.02712278 1.939193
0.333285 0.51579326 0.826111 0.9695521 0.40474454 0.47257286 0.60737437 0.27337322
0.7730276 -0.083534785 0.655949 0.47770375 0.25204486 0.42504787 0.1842599 0.67877007
1.0749391 0.38676897 0.6310903 0.47587484 0.59229505 0.50643384 -0.68375003 0.19806199
0.9054843 0.61753786 0.08442224 0.40071607 0.29371908 -0.0632377 -0.009465078 0.8265592
0.213915 0.5263766 0.39567274 1.2317604 0.51736444 0.13719425 0.63292766 0.36623028
1.2168385 0.22710398 0.7870366 0.8158098 0.23142031 0.4232706 0.18124774 0.3393741
0.8059149 0.1757778 0.6428366 0.6724752 0.34141827 0.18909968 -1.8188108 0.209725
0.9610077 0.5338398 0.66437984 0.5719872 0.54615545 0.23454659 0.18761462 1.0424482
0.1469318 0.36886597 0.78686106 0.96277875 0.6075136 0.3404739 0.5956612 0.20764811
1.0071388 -0.03580915 0.40885618 0.54717124 0.05900168 0.5160981 0.040635332 0.5028408
1.0427501 0.42105946 0.7663794 0.70473194 0.703964 0.078164876 -1.7440526 0.19597234
0.67038393 0.7608502 0.34052345 0.7370028 0.67992246 0.11433486 0.10813325 0.40178934
0.2356539 0.80834544 0.603 1.1977515 0.35245097 -0.15178488 0.6603295 0.51939934
0.8395313 -0.060611818 0.3944091 0.7890705 0.45885715 0.31262016 0.4167555 0.3530487
0.6813718 0.092416756 1.0070331 0.62362283 0.7556911 -0.114740774 -1.6524998 0.09712744
0.96635133 0.7383245 0.4374565 0.5333611 0.18141313 0.10427633 0.11358505 1.2348486
0.35747573 0.42758837 0.7611755 0.94670075 0.48087722 0.20479007 0.47177076 0.19560197
1.2510035 0.36293492 0.8133972 0.18765084 0.15111642 0.6058265 0.0711438 0.42886952
0.9408874 0.5382405 0.6360842 0.5307674 0.31348237 0.28739834 -1.891269 0.17239265
1.0426106 0.473061 0.55166274 0.70969117 0.41340604 0.37042603 0.06714193 0.71451306
-0.050876275 0.73192775 0.6451816 1.2715858 0.42844778 0.16461538 0.6101911 0.6462713
0.78438884 -0.13307562 0.69358695 0.57748914 0.15663764 0.62563986 0.3163405 0.6441449
0.7059693 0.5221924 1.00254 0.6552278 0.53647214 0.26644722 -1.0811614 0.25005144
1.1420975 0.664499 0.35845554 0.48713246 0.45717236 0.19846447 -0.0684343 1.3728495
0.60175264 0.5776636 0.6444305 1.1385263 0.6809041 0.38362497 0.6345082 0.19950646
1.0334092 0.077014394 0.49831697 0.6464832 -0.069876984 0.21376023 0.052744787 0.63757575
0.9540347 0.12816723 0.6980743 0.82147175 0.5367162 0.14814945 -1.6755496 -0.09538264

bias f4 [32]
00000000: 9cbf 87c0 10bb 6bc0 6d37 98c0 1b5b 89c0
00000010: fca3 94c0 fa67 96c0 50c5 87c0 8d96 8cc0
00000020: f90a 97c0 fca3 a2c0 deef 99c0 9a93 9cc0
00000030: 035d 8ac0 1663 99c0 6c76 85c0 ea93 91c0
00000040: 0edd 99c0 2729 97c0 77a5 8fc0 f00f 98c0
00000050: 5421 a9c0 fed6 9ac0 f389 85c0 3516 9ac0
00000060: 51c9 92c0 8749 76c0 e7d3 85c0 c415 8fc0
00000070: 5cb9 a1c0 e746 92c0 11ff a3c0 d421 81c0
-4.24214 -3.6832924 -4.756766 -4.2923713 -4.6450176 -4.7001925 -4.242836 -4.393378
-4.7200894 -5.0825176 -4.8105307 -4.893018 -4.323854 -4.7933455 -4.170706 -4.549306
-4.808234 -4.7237735 -4.4889483 -4.7519455 -5.2853184 -4.838744 -4.1730895 -4.815211
-4.5870748 -3.8482378 -4.182117 -4.471407 -5.053877 -4.571155 -5.124886 -4.0353794

weight f4 [1, 32]
00000000: 857a 9c41 a99b 9c41 8ab0 9b41 e812 9f41
00000010: 3a0f a041 273b a141 2b70 9f41 e23c 9d41
00000020: db09 9f41 9e93 9d41 8c36 9f41 bb48 a041
00000030: ca2d a041 c39b 9d41 3e38 9d41 9df6 9d41
00000040: 315d a041 2663 9d41 2a85 9e41 e122 a141
00000050: 1e2c 9e41 63e8 9b41 03ec 9c41 be92 9a41
00000060: dcb4 9d41 3c12 9d41 7942 9a41 2020 9941
00000070: ac66 9941 f821 a141 a04d 9f41 19c4 9b41
19.559824 19.576006 19.4612 19.884232 20.007435 20.153883 19.92977 19.654728
19.879812 19.697079 19.901634 20.035513 20.022358 19.701056 19.652462 19.745417
20.045504 19.673412 19.815022 20.14203 19.771542 19.48847 19.61524 19.321651
19.71331 19.633904 19.282457 19.140686 19.175133 20.141586 19.912903 19.47075
