Models/NN_x_pos_N2pc/x_pos_model_Subj1.pt (torch, 33900 bytes, 5 tensors)

weight f4 [32, 196]
00000000: b381 563d 4e28 db3e 7943 8bbc f52f a53e
00000010: 2f16 cb3e c069 41bd 220b 3d3d d8db afbc
00000020: 3603 91bd 68e8 00be 817f 8abc 7c0d 233f
00000030: 613c e23e d068 fd3e f924 f63d 5c28 81be
00000040: fdf7 e63e a9e0 743e 6de2 ab3e b0eb c9be
00000050: beb2 19bf cc84 1d3f 9847 fc3e c6b9 39be
00000060: 8fe0 2c3e ea74 cc3e 3902 963d a208 c33e
00000070: 8122 08bf 7ec0 cfbd 5d0e 853e c5eb f7be
00000080: 7166 dc3e 010c 85be 41f1 5cbe bd7a 693f
00000090: d27b 8b3e 1e04 17bd d40e f13e 4a49 c63e
000000a0: 9aa2 ed3b 4e58 ad3e 2961 debe 26d8 b6be
000000b0: 8c8b 1c3e e052 8c3e 047d 88bd 9897 d1be
000000c0: 16ac cd3d d8a0 c13e e142 403d d430 a6bd
000000d0: f1ee 37bd 4428 24bd 0258 e7bd b7a3 b4be
000000e0: 141e 1bbe dc8c 4c3f 7c6f 6c3e 2a36 07bf
000000f0: 3960 043e 4fbe f7bd 9197 8abe 09ca d1be
00000100: 860a 28bf c488 543e 8373 133f 0d2a e2bd
00000110: 2eda fd3c 80c3 25be 30b5 19bf b027 88bd
00000120: 17aa e8bd d5cf 92bd 9312 3fbe e8b2 c63e
00000130: 7d45 1d3f dabe ab3e 0d78 e83e ec27 063f
00000140: cc5f 4ebe a2c2 37bf 2536 c7be 5933 1ebf
00000150: 067e b5bd f395 f83e 58e0 c33e 8f39 18bf
00000160: f2a4 cd3d 80d7 b63c a5b4 8abe c89d 1a3d
00000170: 5d4a 673d a46b 043e c053 fb3d 7331 713d
00000180: e559 b4bd 0037 83bd b0b1 99be 37cb fbbe
00000190: d4e7 473e 90f0 893e 80cb a9be ee0c 73bd
000001a0: 23b2 ea3e 425c fd3e 1917 9c3e 9a80 e3bc
000001b0: 1105 0abe c811 b3be ef24 c4be daaa a4bd
000001c0: 8f22 f43e d857 293f 7c7f 5d3e 2fa9 563e
000001d0: efa0 fe3d 43f0 72be 91cd 4cbe 246e efbe
000001e0: 4424 12bf b2e4 19be 6d29 5a3d 0dc3 81bc
000001f0: c6ba 483d 01be 3ebd 02e4 8abe 207c 6bbe
00000200: 85f4 abbe b48a 3dbc 4b82 99be edec 063e
00000210: 0d02 f33e 368a dd3e eafb aa3e e5ec 663c
00000220: 6fbb 46be eb7b b2be 2043 90be 27f8 acbe
00000230: b807 9c3e 38f3 703e c804 ec3e 6011 993e
00000240: 1c57 9a3d cf06 6a3e 2e7e 8e3e ccac eebe
00000250: 6592 5ebe 7fe3 20bd 065e d6be 98c2 d3bd
00000260: ac10 9ebe 4081 d1be f457 113e 21a5 41bf
00000270: 17ec 72bd 2699 ee3d 1f2f 4abf bebb 05bd
00000280: 645b 8b3e e11f 8dbe 611e fc3e 04e0 3ebd
00000290: b3bb 19bf abe8 c33d b07f bf3d 57d0 3d3e
000002a0: 591e a5bf 9193 85bd 0e38 b03d a49c 88bf
000002b0: 01b1 ce3e e13e 583e ce00 5cbf 8971 e13e
000002c0: 57a1 ef3d 99dc ac3e e006 5e3f 06c8 42bf
000002d0: be26 02bd 909a 70be 2b24 60bf 5435 00bf
000002e0: d16b 8cbe 9ab8 94bd 70df f53e 53e7 9f3e
000002f0: 002a 90be 163a f53e ae44 143f 66f1 22bf
00000300: 8a1b 09be cb1a 203f 945f dd3d 8707 463d
00000310: 059d d1bd 137e 2abd 90f1 cc3d 61d6 a1be
00000320: 7dc0 0d3f 59d6 323f 6693 36be c512 fa3b
00000330: bfea e73e 6847 6e3e 50b5 b73e 7a34 c13e
00000340: e585 0fbe ddf0 b93d a6cf 7f3c 6a57 bbbd
00000350: b80c 6c3c 6de2 223e cb98 3fbe a654 883d
00000360: 7e40 6bbd cf78 2a3d 5eb7 7e3e 64b7 07bd
00000370: 4d71 823e ebc3 803e eb1f 0d3e 01c4 003e
00000380: eb0f 5cbe 44a5 cdbe 8191 813e d413 90bd
00000390: 2f5f 07bd c6cb 0e3e 86d0 ad3d 9a1a 5f3e
000003a0: 3702 023c 5977 2cbe 888e e23e b9d5 f43e
000003b0: da21 71be 1a97 083f 86d2 b3be d755 37bd
000003c0: 0a2e 4b3e e976 cabe fa8e 95be 201b acbe
000003d0: a20c 40be aa60 573e 1186 0b3e faee 22be
000003e0: 31e2 febd 18c0 c43e ecef 303e b759 34be
000003f0: 16ef cebd bddf 883e 956b da3e 3c27 90bb
0.052369785 0.42804188 -0.016999947 0.3226315 0.39665362 -0.04721999 0.046153195 -0.021467134
-0.070806906 -0.12588656 -0.016906502 0.6369245 0.4418669 0.49494028 0.12018771 -0.25226104
0.45111075 0.23913826 0.33571187 -0.39437628 -0.60038364 0.61530757 0.49273372 -0.18137273
0.16882537 0.39932948 0.07324643 0.38092524 -0.5317765 -0.10144137 0.2598752 -0.48422065
0.43046907 -0.2598572 -0.21576406 0.9120291 0.27242905 -0.03686916 0.47081625 0.3872779
0.0072520496 0.33856434 -0.43433502 -0.35711783 0.15287608 0.2740698 -0.0666447 -0.4093597
0.100425884 0.37818027 0.04693878 -0.08114782 -0.044905607 -0.040077463 -0.11296083 -0.35281155
-0.15148193 0.79902434 0.23089403 -0.5281702 0.12927331 -0.12096845 -0.2706876 -0.40974453
-0.6564106 0.20755297 0.5759813 -0.11043177 0.030987825 -0.16187859 -0.60042095 -0.06648195
-0.11360567 -0.07168547 -0.18659429 0.3880837 0.61434156 0.33544046 0.4540409 0.52404666
-0.20153731 -0.7178136 -0.38908496 -0.617971 -0.08861928 0.48551902 0.38257098 -0.5946283
0.100412264 0.022319555 -0.27090946 0.03774813 0.056467403 0.12931687 0.122718334 0.05888505
-0.088062085 -0.06406975 -0.30018377 -0.49178478 0.19522029 0.26941347 -0.3316307 -0.059338503
0.45839033 0.4948445 0.30486372 -0.027771283 -0.13478495 -0.34974504 -0.38309428 -0.080404
0.47682616 0.66149664 0.21630663 0.20962976 0.124330394 -0.23724465 -0.20000292 -0.46763718
-0.57086587 -0.15028647 0.053262163 -0.015840078 0.049006246 -0.04656792 -0.2712708 -0.22996569
-0.3358499 -0.011568714 -0.29982218 0.13176318 0.47462502 0.4326951 0.3339532 0.014094566
-0.19407438 -0.34860167 -0.28176212 -0.33783075 0.3047464 0.2353028 0.46097398 0.2989607
0.07536146 0.2285416 0.27830642 -0.4661621 -0.21735533 -0.039279457 -0.4186861 -0.1033985
-0.30872095 -0.40918922 0.14193708 -0.7564259 -0.059307184 0.116503045 -0.7897815 -0.032649748
0.27218163 -0.27563384 0.49241927 -0.046600357 -0.6005203 0.09565862 0.09350526 0.18536507
-1.2899886 -0.06522287 0.086044416 -1.0672803 0.40369418 0.21117736 -0.8593873 0.44031933
0.11700695 0.33762053 0.8672924 -0.7608646 -0.03177523 -0.23496461 -0.8755519 -0.5008137
-0.27426007 -0.072617725 0.48022032 0.31231174 -0.28157043 0.4789588 0.57917297 -0.63649595
-0.13389412 0.6254088 0.10809246 0.048347022 -0.10235027 -0.04162414 0.10007012 -0.3160887
0.5537184 0.6985832 -0.17829666 0.007631632 0.45296285 0.23269427 0.35880518 0.3773535
-0.1401592 0.09079144 0.015613472 -0.09147532 0.014407329 0.15906687 -0.1871063 0.066567704
-0.05743455 0.04161912 0.24874637 -0.03313388 0.25477067 0.25149474 0.13781707 0.1257477
-0.21490447 -0.4016515 0.25306323 -0.07035032 -0.03304976 0.13944921 0.08487038 0.21787491
0.007935098 -0.16842403 0.44249368 0.47819307 -0.2354807 0.5335556 -0.35121554 -0.044759598
0.19841781 -0.39543846 -0.29210645 -0.33614445 -0.18754819 0.21032968 0.13625361 -0.15911475
-0.12445486 0.38427806 0.17279023 -0.17612348 -0.10104196 0.267332 0.42660204 -0.0043992084

bias f4 [32]
00000000: e249 22bf 98df c4bd 36b4 febe 3f9a d6be
00000010: 16e1 89be 557c be3b d708 2cbe 7fab 17bf
00000020: 5daf d5be f060 2ebe 6f25 43be 2d7a cd3e
00000030: 2daf 09bf 6491 96be a2ca b1be b738 30bf
00000040: 17b8 e2bd 74ab 87be 3012 61be 5eb4 37bf
00000050: cc61 1cbf 2adf 00bf de58 d43d 6ae5 50be
00000060: 1348 3ebf 019d 52bd 36f2 bbbe 5b79 18bf
00000070: 52b4 cdbe c3af b8be e848 0ebf 091a e0be
-0.63393986 -0.096129596 -0.49746865 -0.41914555 -0.2692954 0.0058131614 -0.16800247 -0.5924606
-0.41735354 -0.17029166 -0.19057249 0.40132275 -0.5378292 -0.294078 -0.3472491 -0.6883654
-0.110702686 -0.26497996 -0.21979594 -0.71759593 -0.61086726 -0.5034052 0.103685126 -0.20400015
-0.74328727 -0.05141926 -0.3670823 -0.59560174 -0.40176636 -0.36071596 -0.55579996 -0.43769863

weight f4 [32, 32]
00000000: f2bd 8a3f 0824 d8bc f6a6 3c3e dbb8 063f
00000010: 30e7 043f 6fa3 683f 5b7a 9c3d 756a 0c3f
00000020: 4894 013f b135 5a3f 572e 893e 58ba 853e
00000030: c970 ba3e 906a f33e a64b ebbe b02d 6bbd
00000040: 2600 7e3e f0c9 d8bb aacb 163f 33f1 3d3f
00000050: eaf2 ac3e 3b3b 40be 4214 a73d 955c fc3e
00000060: 07e8 4a3f 6319 f13e 8cd1 473f c243 983e
00000070: be1a 013f fadd 3a3f 2ce3 f43e a8a4 88be
00000080: 2725 d23d dedd 3fbf e435 0a3f f003 b33e
00000090: 1b53 093f e3db 353f ae93 463e 6a99 58bd
000000a0: 8c3e 413f 39e8 cf3e 5b7c 473f c42d 963c
000000b0: b0b1 6a3f 6764 8c3f 0c0a d5bf cebf b9bf
000000c0: abf2 2ebf f057 f1bd 6167 ff3e 8c5c 713e
000000d0: b145 7c3f 3742 25bd 391c 20be 377b 05bf
000000e0: ba05 2a3f 0d42 2a3f 695f b5be 1fc6 1d3f
000000f0: a0a6 fc3e 33c3 1b3f 0104 5f3f 7f42 b8bf
00000100: a589 913f 49c3 d1bc f45d 5c3e 5bc5 113e
00000110: 7d4d 243f ac91 223f 44f8 2a3e 1e4b 683e
00000120: 258a 953e 40ef 6a3f 4098 453e e3b9 643f
00000130: 5511 193f 94b9 0d3f b3bb 2fbf 5e6c fabe
00000140: b983 133f 8eef 5dbc 9117 433f 91b6 4e3f
00000150: ab54 113f 98f3 16be 7aa5 183e 70be 0f3f
00000160: e8c5 993f 51ad f83e f710 0d3f 22fc ef3e
00000170: 3027 c53e f656 043f 03bf 5a3e 043d e3be
00000180: 3478 3b3f 560b d4be f1be a23e b2fe 313e
00000190: 21ac 6e3f d9ec fa3e f92c 3d3f 1211 923e
000001a0: 65cd 1e3f ec4f d43e 6803 0c3f f02d be3e
000001b0: b8a4 533f 5da3 2a3f 5d0b 4ebf 1519 2ebf
000001c0: ac65 863e 903e 343e bbf8 d53e 745e 3b3f
000001d0: 5351 9e3e f8ed 123d 794a e63e 7e1e 9f3d
000001e0: 84d6 3a3f 59ed 693f 0fcb 653e d96e 073f
000001f0: f532 183f b93f 243f a96e 933d 933f 24bf
00000200: 35a7 6d3f 1382 853c ce38 b83e 223f d33e
00000210: b0bf 6d3f 063a 2c3f 7e5e 223e 86aa c93d
00000220: 76b6 063f 3095 7e3f 82db a33e c074 5f3f
00000230: d4a0 d13e 5f13 173f 8a2a 21bf fffb f0be
00000240: 6700 e43e 0fc4 943d 94a0 0d3f 4ab5 3a3f
00000250: d8df 0e3f dbec a2be d31b ac3e 180c 0d3f
00000260: 2512 9f3f 0b2f c33e 2dd5 583f 4f59 a43e
00000270: 1e37 2a3f d2f8 fa3e f64f 503e 167d 0fbf
00000280: fec3 803f 30d1 02bd e1de 973e 49dd b23e
00000290: 1100 003f c244 163f 10a7 f43e a668 0b3f
000002a0: 138d e53e 1a18 263f efa6 d33e e40d 2d3e
000002b0: 2097 323f abce 423f f42b 11bf 4aca e5be
000002c0: 9ad1 453e 834c 833e 3416 1e3f ac4b 0f3f
000002d0: 00cb 023f 6073 0e3e 2dee ddbc b984 833e
000002e0: 02b6 2a3f e1c2 5b3f 85fb 133f 32dc 893e
000002f0: 56cc c33e 4a0c 593f 54b3 903e c2ee bcbe
00000300: 2f7a 8e3f 3bff 57bd 422c b73e 11f2 a03e
00000310: 3d00 0c3f b4b7 803f 34c8 283e 8f80 263e
00000320: 60c9 633e 37aa 8f3f 23be b53d f268 343f
00000330: 667f c13e 32b8 0f3f 739c 2cbf 538c acbd
00000340: 7a7e 803e 122e a9bd 4ced 4e3f 782d 193f
00000350: f350 c03e 9c07 06bd 4a85 97bd d346 403f
00000360: 80a9 743f 1381 283f 32f7 683f 6747 db3e
00000370: a8d3 d43e b74d 283f 26e4 ac3e f773 d7be
00000380: 6cb5 813f bbbc 04be 91da e53e 27ed 163e
00000390: 2858 473f 5eee 2e3f bb41 af3e dc15 843e
000003a0: bfb6 2b3f fcea 523f 19c0 a73e 5372 723f
000003b0: 4144 2e3f 3408 4a3f 1ce1 46bf 0545 04bf
000003c0: 7fe9 aa3e 0d38 ee3d 0e79 183f d040 393f
000003d0: c0b5 9a3e bd3f 88be 9801 953e af29 0a3f
000003e0: f07c 893f 82e4 003f 63f5 c73e 6eb5 f63e
000003f0: 7876 d53e 9ef7 d53e 2e41 913e 8bb0 39bf
1.0839217 -0.026384369 0.18423066 0.5262582 0.51915264 0.9087438 0.07640525 0.5484994
0.50616884 0.85238177 0.26793167 0.26118731 0.36414173 0.47542238 -0.45956153 -0.057416618
0.24804744 -0.0066158697 0.58904517 0.74196166 0.3377908 -0.18772595 0.08158161 0.49289384
0.79260296 0.4708968 0.7805412 0.29739195 0.5043143 0.7299496 0.47829568 -0.26688123
0.102609925 -0.7494792 0.5398848 0.34963942 0.53642434 0.71038646 0.19392273 -0.052880682
0.75486064 0.4060686 0.77924126 0.01833237 0.9167738 1.096814 -1.6643691 -1.4511659
-0.6833903 -0.11784351 0.4988356 0.2357046 0.9854384 -0.04034635 -0.15635766 -0.52141136
0.6641499 0.66507035 -0.35424355 0.61630434 0.49345875 0.60844725 0.87115484 -1.4395293
1.1370131 -0.025605815 0.21520215 0.14235441 0.6418074 0.6350353 0.16696268 0.22684905
0.29206958 0.91771317 0.1929636 0.8934614 0.5979207 0.55361295 -0.6864578 -0.48910803
0.5762287 -0.013545884 0.76207834 0.80747324 0.5676982 -0.14741361 0.14906874 0.5614996
1.2013521 0.4856973 0.5510401 0.4687205 0.3850646 0.5169519 0.21361928 -0.4438249
0.7323029 -0.414149 0.31786302 0.17382315 0.932314 0.49008825 0.7389675 0.2852865
0.6203216 0.41467226 0.546927 0.37144423 0.82673216 0.6665552 -0.8048609 -0.6800702
0.26249444 0.1760199 0.4179133 0.73191 0.3092142 0.035871476 0.44978693 0.07769488
0.72983575 0.9137779 0.22440742 0.52903515 0.59452754 0.64159733 0.07198841 -0.64159507
0.9283326 0.016297376 0.3598084 0.41259104 0.92870617 0.67276037 0.15856358 0.09846978
0.52622163 0.9944639 0.3200341 0.8728752 0.40943015 0.5901393 -0.62955534 -0.47067258
0.44531557 0.07263958 0.5532315 0.72932875 0.5581031 -0.3182133 0.33614978 0.5509658
1.2427412 0.38121828 0.8470028 0.32099387 0.6649035 0.4901796 0.20343003 -0.5605024
1.0059812 -0.031937778 0.2966223 0.34934452 0.500001 0.58698666 0.4778371 0.54456556
0.44834194 0.64880526 0.41338298 0.1689983 0.6976185 0.760966 -0.5670769 -0.44880897
0.19318238 0.2564431 0.6175263 0.5597484 0.51091003 0.139112 -0.02709111 0.25687197
0.6668397 0.85844237 0.57805663 0.26925808 0.38241833 0.84784377 0.28261817 -0.36900908
1.1131037 -0.05273364 0.35775954 0.31434682 0.54687864 1.0056062 0.16482621 0.16259979
0.22244787 1.122382 0.08874156 0.70472634 0.3779251 0.56140435 -0.6742622 -0.08425202
0.25096494 -0.0826074 0.80830836 0.59835005 0.3756176 -0.0327221 -0.0739847 0.7510807
0.95571136 0.6582195 0.9100219 0.42827913 0.4156773 0.65743583 0.33767813 -0.42080662
1.013349 -0.1296262 0.44893315 0.14738904 0.7786889 0.6833247 0.34229836 0.25797927
0.67075723 0.8238981 0.32763746 0.94705695 0.680729 0.78918767 -0.7768724 -0.51667815
0.33381268 0.116317846 0.59559715 0.7236452 0.3021679 -0.26611128 0.29102778 0.53969854
1.0741253 0.50348675 0.39054403 0.48185295 0.41691947 0.4179048 0.2837004 -0.7253501

bias f4 [32]
00000000: a64c 76c0 5e01 98c0 e80d 67c0 2cda 7ec0
00000010: 3c66 56c0 008c 82c0 db17 6cc0 aa0e 61c0
00000020: c4be 49c0 58ea 7cc0 40c7 88c0 0a0d 7fc0
00000030: 23f0 80c0 e390 4cc0 ad3f 83c0 5738 73c0
00000040: 7079 85c0 65c4 6ec0 f963 81c0 cac9 9bc0
00000050: 3383 82c0 4fcd 8dc0 c5e9 80c0 dd28 79c0
00000060: 5663 80c0 c173 76c0 d1e4 7fc0 c354 74c0
00000070: a41c 88c0 44db 7fc0 d23c 58c0 e12b 8dc0
-3.8484282 -4.750167 -3.6102238 -3.9820662 -3.34999 -4.07959 -3.688956 -3.51652
-3.1522684 -3.9518032 -4.2743225 -3.9851708 -4.0293136 -3.1963432 -4.101523 -3.8003137
-4.171074 -3.730737 -4.0434537 -4.8683825 -4.0785155 -4.431312 -4.0285363 -3.893119
-4.012126 -3.850815 -3.9983408 -3.8176734 -4.253496 -3.997758 -3.3787122 -4.4116063

weight f4 [1, 32]
00000000: aad7 9941 dc55 9b41 6d64 9941 46df 9c41
00000010: 5eab 9d41 3c1a 9f41 830b 9d41 97fb 9a41
00000020: cdf6 9c41 a162 9b41 c800 9d41 aac8 9d41
00000030: 54d0 9d41 f8a5 9b41 cde0 9a41 a283 9b41
00000040: 75ba 9d41 3b34 9b41 361d 9c41 ea0a a041
00000050: 328a 9b41 e4f7 9a41 e2ae 9a41 3df1 9841
00000060: 1fbf 9b41 f441 9a41 aa96 9841 1bf4 9641
00000070: b1ad 9741 0d86 9e41 dc37 9d41 359f 9941
19.230305 19.416924 19.174036 19.60902 19.708675 19.88781 19.630621 19.372847
19.620508 19.423159 19.625381 19.72298 19.726723 19.45604 19.359766 19.439274
19.716043 19.400503 19.514263 20.00533 19.442478 19.37104 19.335392 19.117792
19.46832 19.282204 19.073566 18.869192 18.95981 19.815454 19.652275 19.202738
