Models/NN_x_pos_N2pc/x_pos_model_Subj6.pt (torch, 33900 bytes, 5 tensors)

weight f4 [32, 196]
-0.1407337 -0.45796672 -0.2897843 -0.3120752 -0.38604704 -0.15343462 -0.14311944 -0.106570266
0.037592504 -0.10628394 0.030241286 0.21988347 0.1584904 0.5543364 0.108241856 0.59965205
0.09072883 -0.40778238 0.0446607 0.67148346 -0.23076124 -0.37021363 0.21118754 0.26400787
-0.18459716 -0.23286857 0.35471672 0.15817986 -0.093023024 -0.105325446 0.053398736 -0.2239632
0.010385989 -0.05795097 -0.24977854 -0.22427405 0.020973843 0.19715483 0.020830361 0.11203651
-0.12712562 0.04268251 -0.29480878 -0.34298554 -0.27289435 -0.06934885 -0.0003348784 0.12777795
-0.5696333 -0.58517426 -0.023206528 -0.4423318 -0.85593355 -0.48165253 0.12562172 -0.20612304
-0.09046365 0.15111242 0.6492102 0.5474397 -0.09479396 -0.28057757 0.36640066 0.168813
0.12529178 0.016926894 -0.19831449 0.14898229 0.06687974 -0.3919649 0.29443344 -0.09767816
-0.10992016 0.37563562 0.51555324 0.24818021 0.13222909 0.26337186 0.38729563 0.5927587
0.045356 -0.3888182 0.35907093 0.082102545 -0.33818796 -0.17553747 -0.019041501 -0.022111623
-0.028719433 -0.13287623 -0.1698845 -0.26551524 -0.09110052 -0.020342592 -0.28107423 -0.008371291
0.070166156 -0.35145798 -0.19942705 -0.1730634 -0.07622367 0.18947916 0.11958902 0.12272393
-0.41027394 -0.5224692 -0.01312029 -0.031651363 -0.43656728 -0.4732669 0.22711594 -0.18929933
0.010398109 -0.6097319 0.17818682 0.2135021 -0.339794 -0.86244756 -0.040763997 0.22917713
0.0059431694 -0.13702907 -0.0029334424 0.5891511 0.30405068 0.40347224 0.51938504 0.35534504
0.20876734 0.39792278 0.66411096 0.5275238 0.25476804 0.5383651 0.6724484 0.88391846
0.6512952 -0.062309958 0.3610139 -0.019066174 -0.11111313 -0.46273735 0.18039669 -0.23943259
-0.36649302 -0.53158516 -0.15610436 0.56995845 0.41036457 -0.37205926 -0.030326968 0.50849843
0.0734942 0.109534726 0.49121675 0.49250945 0.44865283 0.27332065 0.24108951 0.15972883
-0.4012753 -0.5746866 -0.09928037 0.18615346 0.15470506 -0.31395736 0.013138741 -0.16961692
-0.1924924 0.47137156 0.40007865 0.20157039 -0.04000084 0.06259999 -0.03419624 -0.27810735
-0.1156881 -0.15716822 -0.5075168 -0.23522615 0.05879841 -0.30651036 -0.21951997 -0.4260283
-0.09712487 0.25324303 -0.009757442 0.16428773 -0.41619486 -0.29285818 0.2651185 -0.30506182
-0.56256187 -0.24847478 0.19043337 -0.06742002 -0.08846819 0.17092185 -0.0038497737 -0.46540463
-0.28657076 -0.033719018 -0.7622303 -0.646766 -0.1283991 -0.4691805 -0.51670337 -0.55871844
-0.2713207 0.44493094 0.57604665 0.7836284 0.506525 0.32887983 0.024206575 0.36765894
-0.08789842 -0.06272061 0.2542728 -0.051093332 -0.20138408 0.008809998 0.37511995 0.0132797435
-0.02802567 0.52696794 0.37199634 -0.44650573 -0.46475103 0.0336686 -0.5766849 -0.62088406
0.0019954378 0.04017252 0.1850539 0.16069356 -0.2588107 0.39115375 -0.003816515 -0.41274098
0.090492316 0.10082821 -0.08808465 -0.0021719 -0.071082756 0.5786942 0.15276776 -0.7848299
-0.516189 -0.013424212 0.3173442 -0.26045007 -0.19277963 0.18897974 0.2761485 -0.51491874
00000000: 7f1c 10be 9d7a eabe 9c5e 94be 52c8 9fbe
00000010: f5a7 c5be f71d 1dbe e78d 12be 8341 dabd
00000020: 99fa 193d 65ab d9bd 93bc f73c 2229 613e
00000030: 4f4b 223e fee8 0d3f e8ad dd3d cc82 193f
00000040: 09d0 b93d dac8 d0be 23ee 363d 57e6 2b3f
00000050: ad4c 6cbe a48c bdbe 8c41 583e 0a2c 873e
00000060: 0a07 3dbe 1975 6ebe 6e9d b53e e7f9 213e
00000070: db82 bebd deb4 d7bd a2b8 5a3d 9c56 65be
00000080: ff29 2a3c ff5d 6dbd f2c5 7fbe 19a8 65be
00000090: 56d1 ab3c f5e2 493e 6fa4 aa3c 6673 e53d
000000a0: 382d 02be dbd3 2e3d 2df1 96be cd9b afbe
000000b0: cfb8 8bbe c506 8ebd 9e92 afb9 39d8 023e
000000c0: 7dd3 11bf fbcd 15bf 9e1b bebc 5079 e2be
000000d0: 761e 5bbf 299b f6be fba2 003e eb11 53be
000000e0: 0245 b9bd 37bd 1a3e a432 263f 0225 0c3f
000000f0: 5623 c2bd dda7 8fbe de98 bb3e 51dd 2c3e
00000100: 7d4c 003e 45aa 8a3c f412 4bbe d08e 183e
00000110: 3ff8 883d a0af c8be fbbf 963e 7d0b c8bd
00000120: d21d e1bd 5053 c03e 4cfb 033f f422 7e3e
00000130: 1067 073e add8 863e 9d4b c63e 09bf 173f
00000140: 37c7 393d 2e13 c7be 25d8 b73e 6125 a83d
00000150: f926 adbe 18c0 33be ecfc 9bbc 6f23 b5bc
00000160: 0445 ebbc b510 08be 34f6 2dbe 9df1 87be
00000170: e992 babd 82a5 a6bc f6e8 8fbe bd27 09bc
00000180: 46b3 8f3d 4df2 b3be 9b36 4cbe 8837 31be
00000190: 281b 9cbd d306 423e 17eb f43d af56 fb3d
000001a0: 6d0f d2be 8bc0 05bf 7cf6 56bc dca4 01bd
000001b0: bf85 dfbe 0a50 f2be 1591 683e afd7 41be
000001c0: d55c 2a3c 6417 1cbf 9b76 363e 4ba0 5a3e
000001d0: 7bf9 adbe 5dc9 5cbf 26f8 26bd 69ad 6a3e
000001e0: ebbe c23b 5951 0cbe ff3e 40bb 9bd2 163f
000001f0: 88ac 9b3e ea93 ce3e 6bf6 043f c9ef b53e
00000200: 1bc7 553e 89bc cb3e 2d03 2a3f cd0b 073f
00000210: f570 823e 4cd2 093f 9425 2c3f 7b48 623f
00000220: 48bb 263f ba38 7fbd d0d6 b83e aa30 9cbc
00000230: 488f e3bd e9eb ecbe e9b9 383e d12d 75be
00000240: f9a4 bbbe f715 08bf d2d9 1fbe cce8 113f
00000250: 4e1b d23e 8d7e bebe 4370 f8bc f42c 023f
00000260: 2184 963d be53 e03d c380 fb3e 332a fc3e
00000270: d3b5 e53e aff0 8b3e 2be0 763e f48f 233e
00000280: f573 cdbe a91e 13bf 8253 cbbd 039f 3e3e
00000290: 016b 1e3e 05bf a0be e043 573c 0fb0 2dbe
000002a0: ba1c 45be 9d57 f13e 1cd7 cc3e 7868 4e3e
000002b0: ecd7 23bd 6c34 803d 5b11 0cbd 1664 8ebe
000002c0: e2ed ecbd b5f0 20be 9fec 01bf 20df 70be
000002d0: 9ad6 703d edee 9cbe d8c9 60be 6220 dabe
000002e0: 67e9 c6bd 12a9 813e aedd 1fbc 0b3b 283e
000002f0: 7e17 d5be 82f1 95be 9dbd 873e 1031 9cbe
00000300: 0e04 10bf 2c70 7ebe f700 433e 8213 8abd
00000310: cf2e b5bd 2306 2f3e 7c4c 7cbb 8449 eebe
00000320: 67b9 92be f41c 0abd 8621 43bf 7592 25bf
00000330: 0e7b 03be 6d38 f0be ac46 04bf 2c08 0fbf
00000340: 8cea 8abe fdcd e33e cb77 133f df9b 483f
00000350: 9fab 013f f062 a83e de4c c63c cb3d bc3e
00000360: 1604 b4bd aa73 80bd 0b30 823e 3e47 51bd
00000370: a137 4ebe cf57 103c b90f c03e 4893 593c
00000380: 1796 e5bc 5fe7 063f 4e76 be3e 669c e4be
00000390: d9f3 edbe 16e8 093d 9fa1 13bf 42f2 1ebf
000003a0: e4c5 023b f18b 243d c57e 3d3e da8c 243e
000003b0: d682 84be 4e45 c83e 7f1e 7abb c952 d3be
000003c0: 0954 b93d 057f ce3d ba65 b4bd 6f56 0ebb
000003d0: d693 91bd 4e25 143f 276f 1c3e 9dea 48bf
000003e0: f624 04bf 3af1 5bbc f07a a23e b659 85be
000003f0: 0668 45be e883 413e 5663 8d3e b7d1 03bf

bias f4 [32]
-0.72572684 0.4027316 -0.8352542 -0.48849204 -1.6839101 -0.52122784 -0.8416098 -0.5181451
-0.7261898 -0.60630196 -0.8591 -0.41973707 -0.8086306 -0.62551516 -2.1598072 -1.0125288
-0.7992612 -2.030288 -1.6239775 -0.9898329 -0.7683559 -0.34520295 -0.7934308 -2.4018064
-0.77917486 -0.6820057 -0.9501401 -0.76485837 -0.5536644 -2.185228 -0.86726755 -0.23875025
00000000: 3cc9 39bf d632 ce3e 38d3 55bf a11b fabe
00000010: 5e8a d7bf 306f 05bf bd73 57bf 28a5 04bf
00000020: 93e7 39bf 9b36 1bbf faed 5bbf c7e7 d6be
00000030: 6a02 4fbf c321 20bf 483a 0ac0 8b9a 81bf
00000040: 629c 4cbf 3df0 01c0 7fde cfbf b065 7dbf
00000050: f9b2 44bf 71be b0be 481e 4bbf 32b7 19c0
00000060: 0178 47bf ed97 2ebf 623c 73bf c2cd 43bf
00000070: f3bc 0dbf c7da 0bc0 3f05 5ebf f27a 74be

weight f4 [32, 32]
0.38294217 0.37719214 0.5321459 0.060216717 0.6515167 0.35955304 -0.05645716 1.0060546
-0.57786167 0.6496656 0.5060574 -0.32103097 0.5575983 0.31586722 1.1345434 0.45345917
-0.0149818035 1.122494 0.20462278 -0.42689162 0.3955113 -0.8942046 0.24372251 1.0413418
0.29972175 0.2949142 0.8802163 0.063597746 0.2710195 1.1868746 0.064211465 -1.2170571
0.36185998 0.81811565 0.2800886 0.6836901 0.9812772 0.47564256 0.26457515 0.55125654
-0.086465046 0.6290267 0.3562706 0.1523756 0.69919735 0.4345754 1.0911638 0.01838763
0.051757183 0.65995574 0.841593 -0.16319174 0.7361746 -0.4106378 0.4499861 0.9135816
0.43018916 0.55904675 0.40533355 0.3167834 0.4826264 1.1576015 0.22395055 -1.4479715
0.5535953 0.8619312 0.16594318 0.3936721 0.81025004 0.21164955 0.13446769 0.6305751
-0.23797141 0.47151744 0.26509935 0.44668052 0.7681229 0.43102652 1.1320064 -0.0029740632
0.48067576 0.7545963 0.7639523 -0.07600683 0.78256875 -0.48714018 0.41997752 1.1825603
0.6263111 0.5098954 0.4703211 0.46116272 0.32393557 0.9269701 0.0076263933 -1.3960772
0.26136354 0.4096901 0.17102703 0.32040602 0.8879542 0.4208049 0.44067037 0.44053656
-0.40701613 0.4045979 0.38496625 -0.00016584317 0.9505665 0.21432884 1.1698854 0.19913782
0.18959373 0.6357508 0.6266123 -0.018989358 0.42907146 -0.45673525 0.46693924 1.1113987
0.5491573 0.688016 0.880749 0.4424339 0.3924698 1.0978694 0.053996924 -1.1824821
0.17858908 0.7202156 0.26115873 0.6363772 0.9443992 0.26545823 0.2114314 0.3626851
-0.018890483 0.58875346 0.29083344 0.30523592 0.6140203 0.4516932 1.2726555 0.06677729
0.20839487 0.7981369 0.5097429 -0.0633516 0.77568686 -0.46673656 0.47432554 1.0718563
0.6239827 0.38877934 0.78181547 0.425988 0.5399383 0.9952539 0.124993555 -1.3954643
0.27517122 0.49505416 0.13395606 0.31801447 0.7098369 0.32372755 0.4573114 0.6143951
-0.4515587 0.52582043 0.40077457 -0.023052957 0.9636613 0.2145591 1.1623747 0.20490703
0.09682279 0.7776651 0.79673594 -0.23969638 0.48523042 -0.41369116 0.44519335 1.1947794
0.4614912 0.65010524 0.88581485 0.32625806 0.15838364 1.1960171 0.17996293 -1.1706604
0.35907158 0.4370114 0.1401448 0.3599273 0.8984511 0.38706562 0.22114311 0.42456186
-0.56158274 0.60390115 0.17938437 0.10849991 0.8482374 0.1455662 1.1016234 0.4622128
0.12663418 0.6290067 0.72473437 -0.23760211 0.4245598 -0.46221077 0.34376773 1.2846152
0.4638909 0.62359834 1.0003293 0.41361564 0.25090218 1.2261186 0.16722716 -1.1483344
1.0318097 1.4161626 0.5008042 0.35302597 0.8414826 0.14287888 -0.03668628 0.8953468
-0.104824476 0.88409513 0.5138321 0.6380029 1.0041798 0.49739185 0.8906228 -0.2669637
0.76988137 0.9242461 0.5568614 -0.24416871 0.48497805 -0.7486439 0.45924643 0.9425788
0.56626415 0.3144667 0.22912455 0.5907914 0.2676466 0.58281076 -0.09950933 -1.8302156
00000000: ff10 c43e 541f c13e b73a 083f cea5 763d
00000010: ccc9 263f 5617 b83e 9f3f 67bd 66c6 803f
00000020: beee 13bf 7c50 263f fa8c 013f 2c5e a4be
00000030: c3be 0e3f 59b9 a13e b838 913f cd2b e83e
00000040: 3d76 75bc e2ad 8f3f a288 513e 8a91 dabe
00000050: 7580 ca3e 98ea 64bf 6592 793e b04a 853f
00000060: 2175 993e fefe 963e db55 613f 893f 823d
00000070: 11c3 8a3e 82eb 973f 4d81 833d 87c8 9bbf
00000080: b645 b93e 0770 513f c667 8f3e 5006 2f3f
00000090: fc34 7b3f 6c87 f33e 6576 873e 261f 0d3f
000000a0: 9614 b1bd e507 213f 1a69 b63e 5908 1c3e
000000b0: 99fe 323f ab80 de3e 41ab 8b3f a8a1 963c
000000c0: 57ff 533d dcf2 283f a472 573f bc1b 27be
000000d0: f075 3c3f 1e3f d2be 9464 e63e 7ce0 693f
000000e0: c141 dc3e b01d 0f3f e187 cf3e 6f31 a23e
000000f0: cf1a f73e 492c 943f 4b53 653e 2157 b9bf
00000100: 6cb8 0d3f 86a7 5c3f 02ed 293e 648f c93e
00000110: 8c6c 4f3f a9ba 583e e6b1 093e 5f6d 213f
00000120: c7ae 73be bc6a f13e 1abb 873e 4fb3 e43e
00000130: b4a3 443f 82af dc3e 96e5 903f 80e8 42bb
00000140: 221b f63e 392d 413f 6192 433f 78a9 9bbd
00000150: 6d56 483f 706a f9be 4b07 d73e 235e 973f
00000160: ed55 203f 8188 023f edcd f03e 851d ec3e
00000170: e2da a53e ea4d 6d3f d3e6 f93b a8b2 b2bf
00000180: 71d1 853e e7c2 d13e b621 2f3e 420c a43e
00000190: f750 633f bd73 d73e 8c9f e13e 028e e13e
000001a0: 6b64 d0be 7527 cf3e 4c1a c53e 30e6 2db9
000001b0: 5358 733f 0579 5b3e cebe 953f c9ea 4b3e
000001c0: dc24 423e 90c0 223f aa69 203f 928f 9bbc
000001d0: 41af db3e 34d9 e9be a912 ef3e 5042 8e3f
000001e0: 9395 0c3f d121 303f c478 613f b286 e23e
000001f0: cdf1 c83e fc86 8c3f e12b 5d3d 935b 97bf
00000200: 0ee0 363e 0d60 383f 99b6 853e 9ee9 223f
00000210: 25c4 713f 24ea 873e 7981 583e ddb1 b93e
00000220: 37c0 9abc 8cb8 163f 1fe8 943e e247 9c3e
00000230: 6f30 1d3f 5544 e73e 60e6 a23f 88c2 883d
00000240: 7765 553e b352 4c3f 837e 023f 7cbe 81bd
00000250: 6a93 463f 18f8 eebe ccda f23e 9632 893f
00000260: 55bd 1f3f 160e c73e 0f25 483f 191b da3e
00000270: 6539 0a3f f6c8 7e3f 9ffc ff3d 939e b2bf
00000280: 3ee3 8c3e bd77 fd3e c72b 093e cbd2 a23e
00000290: dfb7 353f 9ebf a53e b824 ea3e ff48 1d3f
000002a0: b432 e7be 2b9c 063f 5332 cd3e 8ed9 bcbc
000002b0: 82b2 763f 61b5 5b3e b2c8 943f 26d3 513e
000002c0: 074b c63d 0f15 473f e3f6 4b3f f872 75be
000002d0: 1f70 f83e 54cf d3be 62f0 e33e 88ee 983f
000002e0: 9348 ec3e 4c6d 263f c3c4 623f 4c0b a73e
000002f0: 522f 223e 1717 993f 3448 383e 33d8 95bf
00000300: 3bd8 b73e f5bf df3e 1e82 0f3e 6448 b83e
00000310: e400 663f 772d c63e 5773 623e 2c60 d93e
00000320: e3c3 0fbf 4499 1a3f 89b0 373e 3335 de3d
00000330: 1626 593f 4e0f 153e ff01 8d3f 28a7 ec3e
00000340: 64ac 013e 9506 213f 3188 393f f84d 73be
00000350: e75f d93e e4a6 ecbe 5302 b03e 456e a43f
00000360: 1c83 ed3e 24a4 1f3f ca0a 803f 6ec5 d33e
00000370: 4076 803e 74f1 9c3f 993d 2b3e 9ffc 92bf
00000380: 5712 843f d144 b53f b434 003f d2bf b43e
00000390: 676b 573f d74e 123e 5a44 16bd 7335 653f
000003a0: 37ae d6bd 0f54 623f 808a 033f 2854 233f
000003b0: f788 803f 25aa fe3e dbff 633f 77af 88be
000003c0: f216 453f 649b 6c3f 788e 0e3f 5d07 7abe
000003d0: 0b4f f83e 20a7 3fbf 5922 eb3e d84c 713f
000003e0: b0f6 103f c801 a13e a09f 6a3e 1b3e 173f
000003f0: fa08 893e 1633 153f 8ccb cbbd 8144 eabf

bias f4 [32]
-4.9604254 -4.620696 -4.5546885 -4.913274 -4.7436743 -4.9727874 -4.809276 -3.8749218
-5.3553 -4.61858 -4.2928367 -5.0895615 -4.78345 -4.8106823 -4.778513 -4.8367267
-4.8740096 -3.5064583 -4.8732057 -4.682356 -5.298951 -4.6828136 -3.449905 -4.514035
-4.613737 -4.8469863 -4.7115364 -4.879542 -4.5529714 -4.887236 -3.7248855 -4.653418
00000000: cebb 9ec0 bedc 93c0 02c0 91c0 8a39 9dc0
00000010: 2ecc 97c0 1321 9fc0 97e5 99c0 b8fe 77c0
00000020: 9e5e abc0 68cb 93c0 eb5e 89c0 b0dd a2c0
00000030: 0612 99c0 1cf1 99c0 94e9 98c0 77c6 9ac0
00000040: e3f7 9bc0 d069 60c0 4df1 9bc0 dcd5 95c0
00000050: 0291 a9c0 9cd9 95c0 3ecb 5cc0 fa72 90c0
00000060: bca3 93c0 831a 9bc0 e8c4 96c0 3525 9cc0
00000070: f1b1 91c0 3d64 9cc0 8664 6ec0 cde8 94c0

weight f4 [1, 32]
19.362663 19.380936 19.291754 19.721361 19.827019 20.062744 19.792746 19.505346
19.862127 19.477537 19.739414 20.108057 19.835918 19.567924 19.485594 19.612146
19.84892 19.586443 19.663094 20.00288 19.66829 19.29331 19.520454 19.133762
19.575165 19.433783 19.126282 18.973404 19.031174 19.992893 19.80262 19.284834
00000000: bce6 9a41 280c 9b41 8355 9a41 59c5 9d41
00000010: bc9d 9e41 8080 a041 8b57 9e41 f30a 9c41
00000020: a3e5 9e41 ffd1 9b41 52ea 9d41 4ddd a041
00000030: f6af 9e41 1c8b 9c41 7fe2 9b41 ade5 9c41
00000040: 97ca 9e41 09b1 9c41 044e 9d41 e605 a041
00000050: a858 9d41 b358 9a41 e429 9c41 f211 9941
00000060: f099 9c41 6378 9b41 a002 9941 88c9 9741
00000070: d83f 9841 72f1 9f41 c46b 9e41 5747 9a41
