Models/NN_x_pos_N2pc/x_pos_model_Subj2.pt (torch, 33900 bytes, 5 tensors)

weight f4 [32, 196]
000000 f9 81 db be 06 5e 93 bc a0 89 0b 3f 45 dc 9b 3e
       -0.428726 -0.01798917 0.54506874 0.3044149
000010 89 33 28 be 93 30 4a be 21 5e 03 bf f6 26 ac 3e
       -0.16425909 -0.19745092 -0.51315504 0.33623475
000020 92 92 69 3f e6 a8 9a bc c4 d0 c9 be 90 55 0e bf
       0.91239274 -0.018879365 -0.39417088 -0.5559931
000030 fa 01 27 3e 9d 5f c2 3e 18 61 09 be f5 73 1d 3e
       0.16309348 0.37963572 -0.13415945 0.15376265
000040 cc 67 28 3f 8a f8 40 be a9 03 32 bf 61 24 6a bf
       0.6578338 -0.1884481 -0.69536835 -0.9146176
000050 db 91 3b bd 44 50 20 3f c3 32 10 3f 22 9c 50 3e
       -0.045793395 0.62622476 0.56327456 0.2037206
000060 5e 09 96 be ba f5 c7 3e 0a 68 03 be a3 da f0 bc
       -0.29304022 0.39054662 -0.12832657 -0.02940113
000070 74 d4 4e bf 6e 14 e9 be 65 b0 7e bb 56 7d f8 3b
       -0.8079293 -0.455234 -0.0038862464 0.0075833006
000080 4f 1f 5a 3d e8 ff d3 be a0 87 48 bf b2 58 48 3e
       0.053252514 -0.41406178 -0.7833195 0.19565085
000090 b7 d4 33 3f fd c1 6e 3c 8c 8c 4c be d2 3d 38 be
       0.7024645 0.014572618 -0.1997549 -0.17992333
0000a0 98 a3 15 3e e2 b6 1c 3e 29 af 2f 3e 60 fc 4d 3f
       0.14613187 0.1530414 0.17156662 0.8046322
0000b0 4b 8e 75 3f 26 1b 37 3e 9f 58 88 bd 3f 72 2d bf
       0.95920247 0.1788145 -0.06657528 -0.6775245
0000c0 3e d5 ca 3e ec 47 2c 3f 06 0b 62 bd 45 db f6 3d
       0.39615816 0.67297244 -0.055186294 0.12053541
0000d0 c2 7c db be 8e 40 29 bd a6 72 19 3f 86 26 11 3f
       -0.4286862 -0.04132133 0.59940565 0.5669941
0000e0 7c fe c6 be cc 61 6d bf fa 5d 40 be 2c 4d 3d bc
       -0.3886603 -0.9272735 -0.18785849 -0.011554044
0000f0 4a d0 e0 be cc f3 8a be ce 93 a3 be 39 10 9b bc
       -0.43908912 -0.27139127 -0.31948704 -0.018928634
000100 b1 b3 7e 3e d0 2b a2 be 99 19 94 3e 08 c2 94 3d
       0.24873234 -0.3167405 0.2892578 0.07263571
000110 72 bb e9 bd ab 12 44 be 53 c4 0d bf 0f 34 62 be
       -0.114127055 -0.19147746 -0.5537769 -0.22090171
000120 5e 4b 48 3f 5c 0f c3 3e a8 78 9a be f1 65 45 bf
       0.7824 0.38097656 -0.30170178 -0.77108675
000130 5c b0 f7 3b 28 96 48 3e c0 fd ba bd 13 ee 08 bd
       0.0075588655 0.1958853 -0.0913043 -0.03343017
000140 0a 07 9e be 67 ae 1c 3f 34 01 1a 3f 36 df 30 be
       -0.30864745 0.61203617 0.60158086 -0.17272648
000150 28 99 47 bf 68 58 01 bf de dc 0c 3e 14 4a a9 3d
       -0.7796807 -0.5052552 0.13756129 0.082660824
000160 ad 78 67 be f5 f6 0b bf 2e bb 47 bf d8 b4 59 3e
       -0.22604628 -0.546737 -0.7801999 0.21260393
000170 99 53 52 3f fb ed ea 3b 5c a0 98 be 26 25 a2 be
       0.8215881 0.0071694828 -0.29809844 -0.31668967
000180 1a af de 3d 2b 6a 90 3e 8a 09 c7 3d be f8 f4 3e
       0.10873242 0.28206 0.09718616 0.47846025
000190 fe 1b 7c 3f e3 e0 d8 3e d6 3c 2a be 6e 99 31 bf
       0.9848021 0.42359075 -0.1662477 -0.6937474
0001a0 6d 86 ca 3e 1f 03 2f 3f bf 63 f5 3d cc ec fd bb
       0.39555684 0.6836414 0.11981916 -0.0077491757
0001b0 82 ed 13 bf 84 dc c4 bd 79 96 dc 3e 93 9e d7 3e
       -0.57784283 -0.096123725 0.43083552 0.4211317
0001c0 84 ee 06 bf a9 18 b9 be a5 1e 0f 3f d0 57 4d 3f
       -0.52707696 -0.36151627 0.55906135 0.80212116
0001d0 7b 66 22 3e b9 dd 30 3e 55 ca e5 3d bb 40 13 3f
       0.15859406 0.1727208 0.112202324 0.57520646
0001e0 28 2e 9d 3f 50 aa 0e 3e d0 7d 1c bf 84 42 4c bf
       1.2279711 0.13932157 -0.61129475 -0.79788995
0001f0 5a 5a aa be 5c 3a 87 bb bf 95 d5 be e6 f4 0f bf
       -0.33272058 -0.00412683 -0.4171581 -0.5623306
000200 cb 49 e1 3e 54 70 27 be 2f e6 30 bf 76 68 2b bf
       0.44001612 -0.16351444 -0.6910123 -0.6695627
000210 33 de 97 be c2 3d b9 3d ae 1a 95 3e 89 c4 73 bc
       -0.29661712 0.090449825 0.29121917 -0.014878401
000220 20 be 0c bf a5 ca 86 bc 34 f6 6d 3e e0 21 34 3e
       -0.5497761 -0.01645405 0.2323845 0.17591047
000230 92 ca e9 be 42 dc d2 be e4 38 11 3f a6 90 f7 3e
       -0.4566236 -0.41183668 0.56727433 0.48352545
000240 6f 8e 17 be 61 77 b7 be e6 21 b5 be 85 a7 fa 3e
       -0.14800428 -0.35833266 -0.35377425 0.48955932
000250 04 76 a5 3f da 91 85 3e c5 9d bd be 22 8a 93 be
       1.292664 0.26087838 -0.3703443 -0.28816324
000260 79 aa bb 3d ab 55 94 3e dc a5 4c be 71 8d 29 be
       0.091633745 0.2897161 -0.19985145 -0.16557862
000270 e8 67 0b 3f 39 fa c5 bd 71 1b 0d bf 0d ca 1d bf
       0.54455423 -0.09666867 -0.5512 -0.6163643
000280 63 aa ba 3e b9 ed 1b 3f 19 06 0f 3f 94 f6 77 3e
       0.3645812 0.6090961 0.5586868 0.24215156
000290 c9 c8 b5 be 8c fe 4c 3e f6 d2 8d 3e 54 c9 53 3e
       -0.3550475 0.20018977 0.27700013 0.2068227
0002a0 19 01 05 bf ab 8b dc bf c2 c2 3f bf 37 c5 55 bd
       -0.519548 -1.7230123 -0.7490655 -0.05219003
0002b0 8c 95 23 bf 1b 9f 3c bf f2 45 41 bf 64 b3 61 3e
       -0.63900065 -0.73680276 -0.75497353 0.22041088
0002c0 4f f6 6c 3f bd ff d1 3e ed e5 a1 3f 02 3f 47 3f
       0.9256334 0.41015425 1.2648293 0.7783052
0002d0 21 d1 c9 be 59 c3 a3 bd 46 25 5b bf 9a c7 3b 3e
       -0.39417365 -0.07996244 -0.8560375 0.1833786
0002e0 60 77 38 3f 83 fc f6 3e c8 fd aa 3d a0 27 47 bf
       0.7205715 0.48239526 0.08349186 -0.7779484
0002f0 3d 8e 17 3f fe e1 5d 3f af 71 12 bf c8 bd 0e be
       0.59201413 0.8667296 -0.5720472 -0.13939583
000300 77 ac 2b 3d 2c 33 96 3d a3 a8 ed 3d 6a 60 23 bf
       0.041912522 0.07333979 0.116044305 -0.6381899
000310 35 5e a0 be 05 07 a9 be 57 59 dc bc 1c 8c a9 3e
       -0.31321874 -0.33013168 -0.02689807 0.33114707
000320 90 09 28 be 2d a7 32 bf e3 5c 1f 3e 14 12 02 3e
       -0.16409898 -0.6978634 0.15562777 0.12702209
000330 95 b5 d9 bd d4 7f 0e bf 97 1b 7f bf 92 cd 8c be
       -0.10630337 -0.556638 -0.99651474 -0.27500588
000340 7b 45 bf be 7d 4e e0 be 22 c7 c5 bd 07 a6 4e 3e
       -0.37357697 -0.43809882 -0.09657122 0.20180522
000350 f1 c2 01 bf c6 5f ed be 48 0c c8 3e 00 2d c7 be
       -0.5068808 -0.46362132 0.3907187 -0.3890152
000360 86 b1 13 bf 31 73 b4 3e e8 8a 0e 3f 64 48 5b 3e
       -0.57692754 0.35244134 0.55680704 0.21414334
000370 28 00 82 3c 79 c0 48 3e 47 92 29 3d 13 a1 a1 3e
       0.015869215 0.19604672 0.041399267 0.31568202
000380 2a 82 dd be 24 4d 13 bf e0 21 b0 be 2c 0e a2 3d
       -0.4326337 -0.5753958 -0.34400845 0.07912859
000390 ab 23 84 3e 32 9d 0c bf a0 0c e5 3c af e9 ef 3e
       0.25808463 -0.5492736 0.027960122 0.46857974
0003a0 c0 bf 61 3e 7c a7 80 be 88 eb f9 be 30 4c f4 3e
       0.22045803 -0.2512778 -0.4881251 0.47714376
0003b0 3e 11 59 3d ba 70 c7 bd 43 1b da bd a0 72 3e 3f
       0.05299496 -0.09738298 -0.10649731 0.74393654
0003c0 c1 03 a6 3d d3 9d b2 be e8 08 23 3f 72 ca 15 bf
       0.08106185 -0.34886035 0.63685465 -0.5851203
0003d0 3b 46 ab be b5 b8 1e 3f b4 b4 63 bc 87 87 4a 3e
       -0.3345202 0.6200059 -0.013898063 0.19778262
0003e0 a6 8b 24 bc c5 01 b4 be b0 3f 5f 3e 07 65 22 3f
       -0.01004306 -0.351576 0.21801639 0.63435405
0003f0 c2 1c 08 be 64 07 b3 be fe 34 0a be bc 77 89 bd
       -0.1329222 -0.34966576 -0.13496777 -0.06712291

bias f4 [32]
000000 d6 1a 78 bf 3d d4 0f bf e8 fd 2d c0 99 0a 3a bf
       -0.9691595 -0.56183225 -2.7186222 -0.7267242
000010 67 21 80 bf df 9a 41 bf 31 15 27 c0 51 cf 2d c0
       -1.0010194 -0.7562694 -2.6106684 -2.7157786
000020 85 e9 4f c0 7f ca 98 bf c5 f8 18 c0 84 fc 11 bc
       -3.248628 -1.1936797 -2.3901837 -0.008910302
000030 47 69 01 c0 12 ba ce bf 41 dd 05 c0 b6 13 db bf
       -2.0220506 -1.6150534 -2.0916293 -1.711539
000040 98 75 d0 bf 24 59 18 c0 e0 c7 1c c0 5e 1a ba bf
       -1.6285887 -2.3804407 -2.4496994 -1.4539297
000050 17 48 11 c0 69 fb 0a c0 42 51 71 bf 40 9d ce bf
       -2.270025 -2.1715949 -0.94264615 -1.6141739
000060 00 8b 81 c0 26 bf f9 be 2b cd 68 c0 4b ef b3 bf
       -4.048218 -0.48778647 -3.6375225 -1.4057401
000070 3c 5e db bf 0f 82 ed bf 38 60 c5 bf 0a c8 9f bf
       -1.7138133 -1.8555316 -1.5419989 -1.2482922

weight f4 [32, 32]
000000 2d 08 df 3e eb 4a 8a 3e d4 74 4b 3f e4 18 13 bf
       0.43560925 0.27010283 0.7947514 -0.57459855
000010 71 74 2d 3d 06 82 10 bd 9b 65 3e 3f 37 44 73 3f
       0.042347375 -0.03528025 0.7437379 0.9502596
000020 d1 ec 26 3f 31 8c e9 3e 15 b2 3f 3f 76 34 45 bf
       0.65205103 0.4561477 0.74881107 -0.77033174
000030 57 67 4b 3f 50 c2 48 bf 12 44 17 3f ae 73 2e 3f
       0.7945456 -0.784215 0.5908824 0.68145263
000040 26 34 0a 3f 4b ba 34 3f 52 50 64 3f 6a f7 25 3f
       0.5398582 0.7059676 0.8918506 0.6483065
000050 cc 34 f1 3e 32 95 da 3e 5f 70 9e 3e 19 0a 3e 3f
       0.47110593 0.42691952 0.30945107 0.7423416
000060 68 d7 6b 3f c4 5a d5 3e ef fa 86 3f 44 15 0b 3e
       0.9212556 0.4167081 1.0545329 0.13582331
000070 2c 61 03 3f 83 6d 2b 3f 34 c0 2d 3f f9 4d 3b 3f
       0.5132015 0.66963977 0.67871404 0.7316585
000080 05 d8 b1 3f 44 0f 7d 3f cc 79 62 3f c8 ce 49 bf
       1.3894049 0.9885142 0.884671 -0.7883115
000090 3f 89 6e 3f 7e b0 fd 3e df 01 30 3f 4f 1a 28 3f
       0.9317817 0.49548715 0.68752855 0.65665144
0000a0 86 ff 7b 3f 00 39 fd 3e 45 5b 1f 3f 15 c2 4b bf
       0.9843677 0.4945755 0.6224864 -0.7959302
0000b0 de 27 23 3f 1d 36 7e bf 24 f7 e4 3c a9 d6 09 3e
       0.6373271 -0.9930132 0.027949877 0.13460793
0000c0 a7 cd 6d 3f bf 4a 20 3f e4 37 49 3f 7e b3 b1 3e
       0.92891926 0.62614053 0.7860091 0.34707254
0000d0 95 be 02 3f 52 21 18 3f 55 25 4b 3f 89 57 fb 3e
       0.51072055 0.5942584 0.7935384 0.49090222
0000e0 13 1e 53 3f 8e 31 4f 3f 5d 30 36 3f b4 54 e7 3c
       0.82467765 0.8093499 0.71167547 0.028238632
0000f0 0e b6 99 3e 0d fb 09 3f 39 40 23 3f 1d 64 1c 3f
       0.3002171 0.538987 0.6376987 0.6109026
000100 0a cc 01 3f d3 3a ed 3e bd e6 26 3f 5e 31 3d bf
       0.50701964 0.46333942 0.6519583 -0.73903453
000110 c1 f8 c6 3d 9c fb 7f be 26 57 5b 3f 44 01 58 3f
       0.09715415 -0.24998325 0.8567985 0.8437693
000120 75 0f c4 3e 51 a8 00 3f 08 cf 16 3f f8 86 0d bf
       0.38293043 0.5025683 0.58909655 -0.5528407
000130 fc 8b 8c 3f 86 f1 1e bf 30 73 11 3f e0 0c b7 3e
       1.098022 -0.62087286 0.5681639 0.3575201
000140 5f 5e 55 3f 63 23 37 3f 67 8e 6a 3f 3a c7 39 3f
       0.83347124 0.7153837 0.9162354 0.7256962
000150 9b d1 32 3f 26 84 1a 3f 4f 45 27 3e 6b 8f 4e 3f
       0.6985108 0.6035789 0.16335033 0.8068759
000160 a9 61 8e 3f 54 3b e7 3e 68 e0 5e 3f 6f 88 a8 3e
       1.1123554 0.4516245 0.87061167 0.3291659
000170 c4 2c 08 3f ae 32 0f 3f d7 f7 00 3f af a9 4c 3f
       0.53193307 0.55936706 0.50378174 0.79946417
000180 f1 16 36 3f 32 0a c3 3e 80 a5 77 3f 33 21 32 bf
       0.71128756 0.38093716 0.9673691 -0.6958191
000190 e2 55 67 3e 6b c9 f4 bd d8 77 83 3f 63 b3 49 3f
       0.22591355 -0.1195248 1.0270948 0.7878935
0001a0 8f f5 0c 3f c8 0c de 3e 62 b1 35 3f cf 44 5c bf
       0.5506219 0.43369126 0.7097379 -0.86042494
0001b0 22 a0 89 3f 57 f0 15 bf c0 36 cb 3e 6c ce a5 3e
       1.0751994 -0.58569854 0.39690208 0.3238405
0001c0 e4 37 40 3f f6 77 42 3f 46 c9 3d 3f 53 80 18 3f
       0.7508528 0.75964296 0.74135244 0.5957081
0001d0 8b 30 ea 3e 7d 72 0b 3f fd 14 b0 3d 29 76 1c 3f
       0.4574016 0.5447157 0.08597753 0.611178
0001e0 66 05 90 3f 44 7a 12 3f 96 f9 82 3f f5 a1 90 3e
       1.1251647 0.5721781 1.0232418 0.28248563
0001f0 74 e0 31 3f 6f b3 da 3e d8 9b 64 3e 21 4d 52 3f
       0.69483113 0.42715022 0.22325075 0.8214894
000200 4d d7 06 3f 5d 14 09 3f 10 3c 41 3f 6d 52 1d bf
       0.5267227 0.53546697 0.75482273 -0.61453897
000210 9e d3 5f 3e 3a 10 92 be e5 e6 52 3f bf 69 24 3f
       0.2185807 -0.28528005 0.8238357 0.64223856
000220 08 3b 35 3f d3 1f 4a 3f c0 e2 42 3f fd 19 2f bf
       0.707932 0.7895481 0.76127243 -0.6839903
000230 39 09 5f 3f 94 0c 52 bf f4 47 eb 3e 8c 14 9f 3d
       0.8712345 -0.8205044 0.45953333 0.07767591
000240 1e 1b 4d 3f 41 5e 56 3f 10 81 40 3f 29 01 1e 3f
       0.801195 0.8373757 0.75196934 0.6172052
000250 bb 23 25 3f 85 69 dd 3e b4 26 7a 3e f6 40 30 3f
       0.64507645 0.43244568 0.24428827 0.6884912
000260 7b 91 94 3f f7 cd ff 3e 3b 24 8a 3f 3c 24 39 3e
       1.1606897 0.49961826 1.0792307 0.18080229
000270 7a b8 5e 3f 09 7c d7 3e 6f e5 cf 3e 4a b5 2a 3f
       0.8700024 0.4208682 0.4060473 0.66682875
000280 b6 b4 08 3e cd cf a2 3e ea fb 97 3f 7a 4c 41 bf
       0.13350186 0.31799164 1.1873753 -0.7550732
000290 09 a6 03 3d ca da 47 bf fa 0b 40 3f ff e0 8c 3f
       0.032140765 -0.7806822 0.75018275 1.1006163
0002a0 3a 51 65 3d 2d ce 3d 3f f5 5c 46 3f 7e 89 c3 bf
       0.055985667 0.74142724 0.7748559 -1.5276334
0002b0 db 1c 15 3f e5 ff 43 bf dc a4 17 3f 1b 2c a7 3f
       0.58247155 -0.7656234 0.5923593 1.3060335
0002c0 0f 10 51 3f 80 81 0c 3f ec 70 1f 3e c0 23 f9 bd
       0.8166513 0.548851 0.1557042 -0.12165022
0002d0 d7 90 e0 3e ff 9c 70 3e aa c3 5d be 8e b1 a0 3e
       0.43860504 0.2349739 -0.21656671 0.31385463
0002e0 7b 72 82 3f ca f2 15 bd 22 4f 2a 3f 35 6e 02 bf
       1.0191187 -0.036608495 0.66527 -0.5094941
0002f0 01 ff 2b 3f e5 b0 2d 3e 9d c1 2a 3e 1e d1 43 3f
       0.6718598 0.16962011 0.1667542 0.7649096
000300 d3 a1 07 3f ce 99 22 3e 3f ad 64 3f 58 13 05 bf
       0.529813 0.15878984 0.8932685 -0.5198264
000310 6f e5 06 3e cf e4 e8 3d fd 3b 5e 3f 40 b8 2d 3f
       0.1317346 0.11371767 0.86810285 0.6785927
000320 67 55 c7 3e d2 3c 04 3f e3 75 08 3f a0 05 2b bf
       0.38932344 0.51655304 0.5330488 -0.6680546
000330 e7 cd 79 3f ac 63 10 bf d7 1a 01 3f 6b d6 35 3f
       0.9757981 -0.5640209 0.5043158 0.710303
000340 4b c6 17 3f 96 6b 13 3f c2 ce 74 3f d6 8d d8 3e
       0.59286946 0.5758604 0.9562799 0.42295712
000350 cb 68 23 3f 6e 78 2c 3f ce 70 39 3e 08 45 7a 3f
       0.63831776 0.6737126 0.18109438 0.97761583
000360 d4 62 62 3f 1e 38 0d 3f e6 0f 97 3f e5 85 cc 3e
       0.8843205 0.55163753 1.1801727 0.39945903
000370 34 b4 0a 3f 61 f6 4c 3f a6 a3 dd 3e 1a ed f7 3e
       0.5418122 0.80063444 0.43288916 0.48423082
000380 37 12 f2 3e 58 32 bc 3e c1 cd 59 3f a6 71 4c bf
       0.47279522 0.3675716 0.8507958 -0.79860914
000390 68 a8 b3 3d f2 9a 5b be ba 43 5a 3f e6 62 7e 3f
       0.08772355 -0.21445826 0.8525959 0.9936966
0003a0 3b 9d 35 3f e3 74 23 3f f1 7b 41 3f 25 f7 28 bf
       0.7094304 0.6385023 0.75579745 -0.6600211
0003b0 46 3a 91 3f 3f 6e f9 be 42 01 0f 3f 7b 6b fa 3e
       1.1345909 -0.48716924 0.55861294 0.48910126
0003c0 20 a1 d4 3e 9e 25 4a 3f 13 1b 4e 3f 78 da 32 3f
       0.4152918 0.7896365 0.8051006 0.69864607
0003d0 86 d8 c7 3e 9e 8a c9 3e 08 4d e9 3d c6 2f 71 3f
       0.39032382 0.3936357 0.11391646 0.9421352
0003e0 5e 1e 8b 3f 9f 65 cd 3e 29 e2 6a 3f b3 ba 5c 3e
       1.0868642 0.40116593 0.91751343 0.21555595
0003f0 d5 e3 17 3f d5 f3 d4 3e 1d 04 f5 3e 04 7a 0f 3f
       0.5933202 0.4159228 0.478547 0.56045556

bias f4 [32]
000000 1a 0b 97 c0 85 59 90 c0 7e 31 93 c0 5c 3d 97 c0
       -4.720105 -4.5109277 -4.5997915 -4.72624
000010 2e 0b 97 c0 6f 1f ae c0 a6 95 97 c0 20 ca 93 c0
       -4.7201147 -5.441337 -4.7370176 -4.6184235
000020 ad 80 96 c0 8d 99 92 c0 08 5b 8f c0 bb e9 91 c0
       -4.7032075 -4.581244 -4.479862 -4.5597816
000030 33 44 ab c0 8c 05 9f c0 d1 79 94 c0 ba 34 9a c0
       -5.352075 -4.969427 -4.63987 -4.8189363
000040 70 3e 97 c0 b5 4d 90 c0 ee 10 a5 c0 ef 0a 9f c0
       -4.726372 -4.5094857 -5.1583166 -4.9700847
000050 82 5e 8f c0 c2 d5 8f c0 28 28 9a c0 f5 b7 8e c0
       -4.4802866 -4.4948435 -4.817402 -4.4599557
000060 4f bf 94 c0 05 9b 94 c0 4c 83 93 c0 c0 f2 8f c0
       -4.648353 -4.6439233 -4.6097775 -4.4983826
000070 b1 e8 90 c0 fd a6 97 c0 76 bf 95 c0 b3 c3 9a c0
       -4.5284047 -4.7391343 -4.6796217 -4.836389

weight f4 [1, 32]
000000 47 57 9b 41 0d 0b 9b 41 fd df 9a 41 b5 04 9e 41
       19.417616 19.380396 19.35937 19.752298
000010 4c 9a 9e 41 13 9f a1 41 3b 4d 9e 41 05 17 9c 41
       19.82534 20.202673 19.78771 19.51124
000020 28 a6 9d 41 eb 74 9c 41 eb eb 9d 41 f7 2d 9f 41
       19.706131 19.557089 19.740194 19.897444
000030 78 f4 9f 41 83 cb 9c 41 22 19 9c 41 d3 da 9c 41
       19.99437 19.599371 19.512272 19.606848
000040 60 3c 9f 41 84 12 9c 41 2a a9 9e 41 0b f2 9f 41
       19.90448 19.50904 19.8326 19.993185
000050 f7 f0 9c 41 1e 1d 9b 41 59 d2 9b 41 44 a5 99 41
       19.617659 19.389217 19.477709 19.205696
000060 59 33 9c 41 40 e7 9b 41 e2 69 99 41 0d 23 98 41
       19.525072 19.487915 19.1767 19.017115
000070 db 01 98 41 1b eb 9f 41 09 40 9e 41 a6 ba 9a 41
       19.000906 19.989798 19.781267 19.341137
