Models/NN_x_pos_N2pc/x_pos_model_Subj4.pt (torch, 33900 bytes, 5 tensors)

weight f4 [32, 196]
000000 22 d1 8d be f5 ec 1b 3f c0 fb 84 be 62 5c da be
       -0.27698618 0.6090844 -0.2597332 -0.42648607
000010 77 a8 4d be a4 41 40 be 08 b4 8c 3e 1d 00 1d 3d
       -0.20083795 -0.1877504 0.27481103 0.038330186
000020 6e ad 5e be 7c f7 e0 3e de 57 86 3e fb bd 10 3e
       -0.21745846 0.43938816 0.26238912 0.14134972
000030 e7 4e a6 3e 1a 89 0f bf e6 c7 94 3c 25 f0 af bd
       0.32482073 -0.56068575 0.018161725 -0.08590726
000040 a4 b4 cb 3e 09 e3 2a be 0f c1 16 bc 07 a8 9f be
       0.39786255 -0.1668817 -0.009201302 -0.31182882
000050 ae b2 a2 be 31 f7 27 bd f9 0a 02 be eb b7 57 3e
       -0.31776947 -0.041007224 -0.12699498 0.21066253
000060 ab 22 86 3e bd 95 1c 3f 6e 44 69 3e e4 8a 82 3d
       0.26198325 0.6116598 0.2278001 0.063741475
000070 9c 42 49 be c5 32 d6 3e 48 1e 3b 3e 37 6e 8f bd
       -0.19654316 0.4183561 0.1827327 -0.07003444
000080 e5 f2 07 bd d3 b6 d9 bd 6f 6a 8c 3e 78 a1 e8 bd
       -0.033190627 -0.10630574 0.27424952 -0.11358923
000090 06 b2 d9 be 34 4b 59 3e 93 a0 5c 3e bc ed 32 3b
       -0.42518634 0.21220094 0.21545629 0.0027302345
0000a0 41 69 d4 be 2f 77 2a bf 73 ba 87 3e 93 d3 1c bb
       -0.41486552 -0.6658811 0.26509437 -0.002392982
0000b0 c8 98 2d 3b bf 4d e2 bd 15 c8 12 3f d7 0b 25 3c
       0.002648877 -0.11049985 0.5733655 0.010073624
0000c0 a6 0e 16 3d 25 33 32 3d d1 59 4f be b5 c6 f0 3d
       0.036635064 0.043505806 -0.20249106 0.1175665
0000d0 69 50 b5 3d c6 9a 28 3f 67 ab 1c 3f a0 98 f2 bb
       0.08853228 0.65861166 0.6119904 -0.007403448
0000e0 54 9a 31 3e e0 25 29 3e ec 55 58 3f 95 ed 59 3f
       0.17344028 0.16518354 0.84506106 0.85128146
0000f0 07 e8 8d be a6 dc 38 bf 35 f9 3a 3d 7d 2a 41 3d
       -0.27716085 -0.7221168 0.04564782 0.04715966
000100 3a e3 37 be 74 7b 04 be 4d 90 bb 3e 89 5e 79 3e
       -0.17957774 -0.12937719 0.3663353 0.24352469
000110 49 32 42 be b6 d2 09 3f 6a 0a c5 3e aa 0c b1 be
       -0.18964495 0.53837144 0.38484508 -0.34579974
000120 f6 4f a8 3e 03 c4 34 3d 93 07 0d bf a8 d3 94 bf
       0.32873505 0.044132244 -0.5508968 -1.1627092
000130 cc 0b 15 bf e0 3d b5 3e 59 b8 ab 3d 69 49 98 bd
       -0.58221126 0.3539877 0.08384771 -0.07435877
000140 ff 1f a8 be 89 41 05 be 54 7e 55 3f a3 db f1 3e
       -0.3283691 -0.13013281 0.83395886 0.47237882
000150 7f ff 4c be ab 43 11 3e a8 08 d8 3e d6 e9 ae 3e
       -0.20019339 0.1418597 0.42194104 0.34162778
000160 ef 7c 97 be 44 dc d6 be e0 ce 48 3e 91 c3 d6 bc
       -0.29587504 -0.41964924 0.19610167 -0.0262163
000170 13 49 62 be 20 04 63 3d c9 1d 2d 3d d2 d9 12 bd
       -0.22098188 0.055423856 0.042264733 -0.03585226
000180 8a f8 c3 be a7 0c 9c be 71 15 9a 3e 8e 42 73 be
       -0.38275558 -0.30478403 0.30094483 -0.23755857
000190 94 c2 fa bd 8c f9 ec 3d d7 68 95 3e 73 67 c9 be
       -0.12244144 0.11571035 0.2918155 -0.39336738
0001a0 74 e2 b6 be a0 3d 23 be 4d a8 ca be 5c 2f a0 be
       -0.35719645 -0.15941477 -0.39581528 -0.31286132
0001b0 c0 50 1d be 1c 66 ba 3e f0 e4 3c 3f e0 a6 1b 3e
       -0.15362835 0.36406028 0.7378683 0.15200377
0001c0 44 73 24 bf c8 f2 ed be 19 cd 0c 3e 7e 2a ee 3e
       -0.6423838 -0.4647429 0.13750114 0.46516794
0001d0 41 f5 ec be b4 58 3a bf ca 3f 9f 3e f6 ec cb 3e
       -0.46280864 -0.727916 0.31103355 0.39829224
0001e0 3b 20 38 3e ca 69 3b be 6a 0a 72 bf a7 8f 96 bf
       0.17981045 -0.18302074 -0.9454714 -1.1762589
0001f0 ab f6 85 bf 58 3c 69 bf 1d 5c a9 3e a1 ef 2b bf
       -1.0465902 -0.911077 0.3307809 -0.6716252
000200 6f a6 60 be a7 ac bd 3e a0 af c1 3e 87 6e a1 3d
       -0.2193849 0.37045786 0.37829304 0.078824095
000210 0b 85 4b bf 86 03 5f bf 39 f3 16 bf 03 94 d9 be
       -0.7949988 -0.8711475 -0.5896488 -0.42495736
000220 db 8a d4 3e 67 63 7f 3f 67 aa 91 3f cd 4c 4e 3f
       0.41512188 0.9976105 1.1380128 0.8058594
000230 6a 80 45 bf 07 40 d7 be 5c 5c 5d bc 12 f5 d4 bd
       -0.7714907 -0.42041036 -0.01351079 -0.10398306
000240 4c 9a 18 bf 17 b5 21 bf ae bf 69 3e 76 be a8 3e
       -0.5961044 -0.63166946 0.22827026 0.3295781
000250 d3 aa 46 3e fa fb bd 3e 66 af 84 3e 01 40 8e 3e
       0.19401102 0.37106305 0.25915068 0.27783206
000260 1a 97 a6 3e 8e b8 4d be 76 91 25 3f 9c 14 52 bc
       0.32537156 -0.20089933 0.6467508 -0.0128222965
000270 f7 aa 89 3d 1d 4d e8 3e fb 26 48 3f 13 aa 87 3e
       0.06722062 0.45371333 0.7818448 0.26496944
000280 e4 a4 bd be 1b f4 e8 be 53 5e c5 be a0 2c 08 bf
       -0.37039864 -0.45498738 -0.38548526 -0.5319309
000290 39 71 8b 3d 37 af e5 3e f7 f4 9f 3e 7d 19 d7 3e
       0.06808705 0.4486024 0.3124158 0.42011634
0002a0 fb 44 e7 3e 7c c1 1b 3f b8 71 ca 3e 8d 30 d8 3e
       0.45169815 0.6084211 0.39539886 0.4222454
0002b0 a3 00 57 bd 39 7f d7 bd a1 8c 01 3e 22 3d 95 3d
       -0.05249084 -0.10522313 0.12651302 0.07287051
0002c0 11 ed e0 bd 61 b3 57 be 4c 79 a6 3d 85 1b eb bd
       -0.10982717 -0.21064521 0.08128604 -0.11479858
0002d0 0b 31 27 bf 4b 7a 03 bf 14 4d 89 3e b4 1c e7 be
       -0.6530921 -0.5135848 0.26816618 -0.45139086
0002e0 e6 da db be 47 a4 e2 bc 04 db a4 3e 1f bf ae bc
       -0.42940444 -0.027666224 0.32198346 -0.021331368
0002f0 d0 04 d0 3d aa 2a 58 be 82 02 0f be 4c 3d 6e 3e
       0.10157168 -0.21110025 -0.139658 0.2326557
000300 d1 dc d0 bd 53 be d2 3e 30 46 f2 3e e1 3b c1 be
       -0.101983674 0.4116083 0.47319174 -0.37740996
000310 a6 c3 e3 3e d4 05 35 3f 40 15 96 3e 71 19 11 be
       0.44485205 0.7071202 0.29313087 -0.14169861
000320 c7 ba 52 be 92 fe f4 bc 6e 1a 8b bd e1 b1 12 be
       -0.20579062 -0.029906545 -0.067921504 -0.14325668
000330 99 51 59 bd e1 ea c9 bd cc a2 48 bd 2c c4 84 3e
       -0.053056333 -0.09859253 -0.04898338 0.25930917
000340 a3 8b 81 3e 5a 67 67 bd ca 0b 53 3a f5 dd a6 3e
       0.25301847 -0.056495048 0.0008050768 0.32591215
000350 db be 30 3f 65 8a 1d 3d 72 a5 60 3e 06 1a b0 bd
       0.6904122 0.03846206 0.21938112 -0.085987136
000360 fc 1a 14 bd 7b b1 01 3f 91 5e d5 3e d2 52 13 3d
       -0.036158547 0.5066144 0.4167371 0.035967655
000370 6b 5f 97 3d 99 50 3f 3f d5 34 f3 3e 27 37 f9 3d
       0.073912464 0.7473236 0.47501245 0.121687226
000380 6e b3 a0 3c f5 0c 99 3d 91 ca b4 bc ea 51 00 be
       0.019616809 0.074731745 -0.022069247 -0.12531248
000390 d3 4f 94 be 05 67 90 bd 95 9f f3 bd 0b f6 a0 be
       -0.2896715 -0.070508994 -0.11895672 -0.31437716
0003a0 76 82 e1 3c 9e 2d 2c 3e b2 e6 bf 3d a0 a2 6f 3e
       0.027528029 0.16814277 0.093701735 0.2340188
0003b0 14 8e 9d be 1f 23 11 bf 22 05 cb 3d 5a 3d ae 3d
       -0.3077246 -0.56694216 0.099130884 0.08507796
0003c0 46 34 8a 3d 4c 5a 70 be bd ae 8f 3e 8d 96 97 be
       0.067482516 -0.23471946 0.28063002 -0.2960705
0003d0 bc e3 5f be ca da a6 3e 1f 14 aa 3e a1 89 3f 3e
       -0.21864218 0.32588798 0.33218476 0.18704845
0003e0 a2 61 cd bd 63 b3 c4 3e 6d 0e 9c 3e 60 23 88 be
       -0.100283876 0.3841811 0.30479756 -0.2658949
0003f0 84 93 97 3e 2e 64 0e 3e ba fc 4a bd 9c 3f 95 3d
       0.29604733 0.13905403 -0.049557425 0.07287523

bias f4 [32]
000000 59 5a c5 bf 6b c5 8f bf 21 85 13 bf 4b 51 97 bf
       -1.5418197 -1.1232122 -0.57625014 -1.1821684
000010 1c ac 7d bf 6b 63 20 be 5e 7c 7c bf 9d 5f 6c bf
       -0.99090743 -0.15662925 -0.9862727 -0.92333394
000020 72 b5 98 bf a3 eb 5e bf af 7f 10 bf 5b 66 5b bf
       -1.1930373 -0.87078303 -0.5644483 -0.8570306
000030 0f dc 98 bf 07 19 30 bf da d5 3d bf db 50 85 bf
       -1.1942157 -0.6878819 -0.74154437 -1.04153
000040 fa 4c 57 bf d3 6c ac bf 9a 71 37 bf 89 e3 be bf
       -0.8410183 -1.347071 -0.7165772 -1.4913188
000050 a7 dd 92 bf 53 1b 03 bf 27 d1 94 bf 3c e4 8f bf
       -1.1473893 -0.5121357 -1.1626328 -1.1241527
000060 e3 d8 ce be 7f b2 aa bf 19 0a fe bf 91 db 62 bf
       -0.40399846 -1.3335723 -1.9846832 -0.8861628
000070 55 d6 b4 bf 8a 28 36 bf 4f 0b 3d bf c4 20 35 bf
       -1.4127909 -0.7115561 -0.7384538 -0.7075312

weight f4 [32, 32]
000000 fd a6 ea 3e 04 21 9f 3d cb 17 96 3f bb 3e 3f 3f
       0.45830527 0.07769969 1.1726011 0.74705094
000010 8a 23 17 3e 29 6b 9d 3f 46 40 08 be 27 0d 94 3f
       0.14759651 1.2298328 -0.13305768 1.1566514
000020 d9 49 b2 3e 3d b4 ce be 0e cd 16 3f 3c 38 0a 3f
       0.34821966 -0.40371886 0.5890664 0.53992057
000030 f6 cf e6 3e b4 0b a9 3e f1 58 d5 3e c0 ef 86 be
       0.45080537 0.3301674 0.4166942 -0.2635479
000040 2b 03 7d 3f 8e 0f 3a 3f 63 bc 4d 3e c7 7d ec 3e
       0.9883296 0.72679985 0.20091395 0.4618971
000050 11 21 b2 be 5d eb cf 3e 88 ce 5f 3f 96 7e 63 be
       -0.34790853 0.40609255 0.87424517 -0.22216257
000060 db 4b 9b 3e d9 9a 54 be 9f e5 77 3f 48 4c 38 3f
       0.3033131 -0.20762195 0.9683475 0.71991396
000070 f9 03 35 3f e1 f5 92 bf 33 7f f7 3e fd f1 84 3f
       0.70709187 -1.1481286 0.48339233 1.0386349
000080 c7 4a 22 3f 3e e4 da 3d 9f 4a 8d 3f 64 21 4e 3f
       0.6339535 0.10688065 1.1038398 0.805197
000090 2f 3b b8 3e 3c 4e 86 3f 3d 55 08 3e b5 68 32 3f
       0.35982653 1.0492625 0.13313766 0.6969102
0000a0 a4 7d 30 3f 4c ca 5a bf e1 a0 0d 3f 5c ca 30 3f
       0.6894171 -0.8546493 0.55323607 0.69058776
0000b0 4d cd 94 3e c8 fa c5 3e 61 62 43 3f 29 1a 6d bf
       0.29062882 0.38667893 0.7632199 -0.9261804
0000c0 39 a4 3c 3f fc c8 54 3f 80 69 a5 3e 55 c8 ed 3e
       0.73688084 0.8311918 0.32307053 0.46441904
0000d0 49 3b 63 be 1f dc a0 3e f8 77 6b 3f b5 89 76 be
       -0.22190584 0.3141794 0.9197993 -0.24075969
0000e0 f8 7d 7f 3d fd 61 a4 3d 69 35 0b 3f cc bd 38 3f
       0.062375993 0.08026502 0.5437837 0.7216461
0000f0 45 b5 1b 3f c7 14 c3 bf 09 2b b4 3e 3a ea d5 3e
       0.6082347 -1.5240716 0.35189083 0.41780263
000100 5c e0 22 3f 67 6b 95 3e 2f 57 d9 3e 7a 93 c6 3e
       0.63623595 0.29183504 0.42449328 0.3878439
000110 41 22 f2 3e d8 c7 e5 3e 8a bc 85 3e 8d 25 f7 3e
       0.4729176 0.4487903 0.26120406 0.48270836
000120 5a 67 da 3e cd 83 14 bf f9 ec 8b 3e 7b 54 87 3f
       0.42656976 -0.5801361 0.27329233 1.0572656
000130 42 b8 76 3f 2e 60 b4 3e ff fc 1a 3f e2 53 61 bf
       0.96374905 0.3522963 0.6054229 -0.8801862
000140 5f 4f 95 3f c7 67 83 3f cd 02 cb 3e f1 25 76 3f
       1.1664847 1.0266045 0.39650574 0.96151644
000150 42 07 ee bb 0a 53 2e 3e 11 be 81 3f f8 02 ed bc
       -0.007264049 0.17023864 1.0136129 -0.02893208
000160 cf 07 96 3e 15 12 0a 3e ce c1 29 3f b1 c3 5c 3f
       0.29302832 0.1348346 0.6631135 0.862361
000170 c2 69 56 3f ad c3 bc bf 17 6d b8 3e c4 7b ad 3e
       0.83755124 -1.4747216 0.3602073 0.33883488
000180 c2 3b 24 3f 84 2c bb bc 13 df ae 3f b9 65 e9 3e
       0.64153683 -0.022848375 1.3661827 0.4558542
000190 16 37 0b 3e ec ca 8e 3f 6b 95 8c 3e 8c 36 ed 3e
       0.13595232 1.1155677 0.27457747 0.46330678
0001a0 fd 44 03 3f bb c3 89 bf a2 db 0d 3f 04 dc 44 3f
       0.5127714 -1.0762857 0.5541326 0.7689822
0001b0 78 51 06 3f a3 80 be 3e f0 1a 4a 3f 42 28 87 bf
       0.5246806 0.37207517 0.78947353 -1.0559161
0001c0 87 99 50 3f ad 0c 3d 3f 2e 0a 38 3e 71 d7 e2 3e
       0.81484264 0.73847467 0.17972633 0.44304994
0001d0 55 de e0 be e9 9c dd 3d 63 ef 51 3f fd 4b 45 be
       -0.43919626 0.10820944 0.820059 -0.19267268
0001e0 65 f5 8c 3e a2 10 99 3e 7e 35 55 3f aa a1 4e 3f
       0.2753097 0.29895502 0.8328475 0.8071543
0001f0 d2 69 24 3f 3a 96 cb bf 9a 42 32 3e c3 0b f8 3e
       0.6422397 -1.590522 0.17408219 0.48446473
000200 ef 58 fd 3e 3e c8 83 3e 08 d9 20 3f ae 4c 21 3f
       0.49481913 0.2573871 0.62831163 0.6300763
000210 4c c7 1e 3f 2b de 00 3f 29 86 3a 3e f8 f6 a4 3e
       0.6202285 0.50339 0.1821524 0.32219672
000220 86 57 28 3f dd 0c c5 be 96 f8 af 3e 69 f4 78 3f
       0.6575855 -0.38486376 0.34369344 0.9724794
000230 85 40 64 3f 0a 6c 93 3e 8f 42 0f 3f da 2b 76 bf
       0.8916095 0.28793365 0.55960935 -0.9616066
000240 56 cc 7b 3f 9d 51 87 3f 00 aa 34 3e 40 4e 7a 3f
       0.98358667 1.0571781 0.17642975 0.9777565
000250 8c 44 91 bd 39 30 e6 bc 75 94 8b 3f fa e9 55 bd
       -0.070931524 -0.028099166 1.090468 -0.05222509
000260 74 5e c1 3e 6e b5 95 3d 1b 79 7e 3f a9 2a 27 3f
       0.37767375 0.073099956 0.9940354 0.6529947
000270 fe 6a 85 3f 4c e6 c9 bf ec 20 d6 3e ed f4 89 3e
       1.0423276 -1.5773406 0.41821992 0.26944676
000280 51 d6 fc 3e d5 83 0d 3e c0 12 a8 3f a1 f6 05 3f
       0.4938226 0.13819821 1.3130722 0.5232945
000290 ce f9 5a bd 0b c0 90 3f 1e 6a 0d 3d 48 db 89 3f
       -0.05346089 1.1308607 0.03452503 1.0770044
0002a0 62 38 b4 3d 93 57 ca be 20 0e 3a 3f de e2 08 3f
       0.08799817 -0.3951994 0.72677803 0.5347117
0002b0 a3 68 27 3f 3b ae 1b 3f b0 3a 70 3e 2e a8 19 bf
       0.6539404 0.6081273 0.23459888 -0.60022247
0002c0 a3 50 5d 3f 36 4a 6d 3f 0a 90 9f 3e 1a 56 33 3e
       0.86451167 0.9269136 0.3116458 0.17513314
0002d0 ec d1 b2 be 81 0c 3f 3f 5f 4f 27 3f 95 d7 9c be
       -0.34925783 0.74628454 0.65355486 -0.30633226
0002e0 5c ce d0 3e fd 63 3a bd e2 f4 84 3f 5c 68 35 3f
       0.4078244 -0.045505513 1.0387232 0.70862365
0002f0 75 2a 14 3f ca 89 81 bf 43 e2 df 3e 89 2b 8f 3f
       0.57877284 -1.0120175 0.43727311 1.1185161
000300 ca 64 83 3f 7c 91 84 3e 68 11 3f 3f 0c 8a 14 3f
       1.0265133 0.25892246 0.74635935 0.5802314
000310 06 24 78 3e ca 78 84 3f 63 df 31 3e c3 13 e0 3d
       0.24232492 1.0349362 0.17370372 0.10941269
000320 e0 1e 0d 3f 90 a5 50 bf 8a 95 a5 3e 5a d3 8a 3f
       0.55125237 -0.8150263 0.32340652 1.0845749
000330 d8 18 20 3f ee 7d 54 3e ae 28 01 3f d5 40 84 bf
       0.6253791 0.20751163 0.504527 -1.0332285
000340 32 29 41 3f 2d fe 4c 3f d3 6d 86 3e 4c 51 d2 3e
       0.75453484 0.8007534 0.26255664 0.4107765
000350 54 c2 25 bf 10 04 95 3e 69 7e 4a 3f 06 45 d1 3d
       -0.64749646 0.29104662 0.79099137 0.10218243
000360 97 08 04 be 63 08 e3 3e 2d ba 87 3f b4 17 23 3f
       -0.12893902 0.44342336 1.0603691 0.63708043
000370 1e ae 63 3f ca ec d0 bf 33 7b d9 3e af 73 ff 3d
       0.88937557 -1.6322262 0.42476806 0.12473237
000380 1a b6 64 3f 02 a5 5f 3e 5d 91 d0 3e 81 3b 05 3f
       0.89340365 0.21840289 0.40735903 0.5204392
000390 27 65 3c 3e 81 9a 4f 3f d3 e5 89 3e b1 e8 b4 3e
       0.18397962 0.8109513 0.26933154 0.3533378
0003a0 94 2e 2b 3f f3 f8 7d bf 4a 3d d3 3e e9 32 87 3f
       0.6686795 -0.9920799 0.41257697 1.0562412
0003b0 7e 9f ef 3e dc a5 7c 3e 37 b1 ea 3e 05 73 e4 bf
       0.4680137 0.24672645 0.4583833 -1.7847601
0003c0 34 ef 81 3f b9 b4 ef 3e e8 58 28 3d 23 e4 18 3f
       1.0151124 0.46817568 0.041100413 0.5972311
0003d0 b6 af d2 bf 94 85 0a bd 51 cc 8b 3f b8 7e 0a 3e
       -1.6459873 -0.033818796 1.0921727 0.13524902
0003e0 84 58 1d 3e 96 d9 d8 3d d9 f8 91 bd cd 22 fe 3e
       0.15365797 0.10588376 -0.07127542 0.49635926
0003f0 a1 3f 93 3f 91 ee ef bf af b0 a8 3e 74 bf 51 bf
       1.1503793 -1.874468 0.329473 -0.8193276

bias f4 [32]
000000 72 9a 67 c0 ac de 8d c0 92 19 87 c0 02 77 8d c0
       -3.6188016 -4.4334316 -4.2218714 -4.4207773
000010 19 01 87 c0 e1 75 6a c0 28 07 94 c0 98 96 94 c0
       -4.218884 -3.6634448 -4.6258736 -4.643383
000020 61 e4 64 c0 87 ad 92 c0 57 85 87 c0 a7 6e 98 c0
       -3.5764391 -4.5836825 -4.235027 -4.7635074
000030 32 7c 4d c0 06 27 9a c0 20 2d 86 c0 ac 0a 87 c0
       -3.2107053 -4.8172636 -4.1930084 -4.2200527
000040 1f fd 90 c0 de dd 92 c0 91 ae 87 c0 27 f7 8b c0
       -4.5308986 -4.5895834 -4.2400594 -4.37392
000050 fb c8 87 c0 01 35 86 c0 a9 40 96 c0 d2 1e 8a c0
       -4.2432837 -4.19397 -4.695393 -4.3162622
000060 80 d8 8c c0 3f 95 4a c0 6e 7c 7a c0 10 e6 74 c0
       -4.401428 -3.1653593 -3.9138446 -3.826542
000070 f5 35 79 c0 f4 f2 8c c0 6c bf 89 c0 5d 56 89 c0
       -3.8939183 -4.4046574 -4.304617 -4.2917924

weight f4 [1, 32]
000000 90 d7 99 41 56 f5 99 41 85 04 9a 41 45 1d 9d 41
       19.230255 19.244793 19.252207 19.639292
000010 03 5f 9e 41 d4 0f 9f 41 b0 d3 9c 41 84 f9 9b 41
       19.796392 19.882729 19.603363 19.496834
000020 05 20 9d 41 15 23 9b 41 0f 94 9d 41 eb 14 9e 41
       19.640635 19.39213 19.697294 19.760214
000030 9c 6f 9e 41 10 68 9c 41 fa 59 9b 41 f5 fb 9b 41
       19.804497 19.550812 19.418934 19.498026
000040 1a 6e 9e 41 97 ef 9b 41 62 92 9c 41 0d 65 9f 41
       19.80376 19.491987 19.571476 19.924341
000050 73 03 9c 41 fd 5b 9a 41 82 59 9a 41 fa 6d 98 41
       19.501684 19.294916 19.293705 19.0537
000060 2a c1 9b 41 ff 0e 9a 41 57 67 98 41 e7 65 96 41
       19.469318 19.257322 19.050459 18.799757
000070 f5 b4 96 41 b2 69 9f 41 51 1a 9d 41 37 ae 99 41
       18.838358 19.926609 19.63785 19.210066
